…
I0902 16:06:26.474828 27875 upgrade_proto.cpp:77] Attempting to upgrade batch norm layers using deprecated params: /media/b1xian/0bf6a73e-4703-464a-86ac-89d0f41aca49/work/cpp_project/test_snpe_demo/Mobilenet_SSD/deploy.prototxt
I0902 16:06:26.474833 27875 upgrade_proto.cpp:80] Successfully upgraded batch norm layers using deprecated params.
I0902 16:06:26.475652 27875 net.cpp:58] Initializing net from parameters: 
name: "MobileNet-SSD"
state {
  phase: TEST
  level: 0
}
layer {
  name: "input"
  type: "Input"
  top: "data"
  input_param {
    shape {
      dim: 1
      dim: 3
      dim: 300
      dim: 300
    }
  }
}
layer {
  name: "conv0"
  type: "Convolution"
  bottom: "data"
  top: "conv0"
  param {
    lr_mult: 0.1
    decay_mult: 0.1
  }
  convolution_param {
    num_output: 32
    bias_term: false
    pad: 1
    kernel_size: 3
    stride: 2
    weight_filler {
      type: "msra"
    }
  }
}
layer {
  name: "conv0/bn"
  type: "BatchNorm"
  bottom: "conv0"
  top: "conv0"
}
layer {
  name: "conv0/scale"
  type: "Scale"
  bottom: "conv0"
  top: "conv0"
  param {
    lr_mult: 0.1
    decay_mult: 0
  }
  param {
    lr_mult: 0.2
    decay_mult: 0
  }
  scale_param {
    filler {
      value: 1
    }
    bias_term: true
    bias_filler {
      value: 0
    }
  }
}
layer {
  name: "conv0/relu"
  type: "ReLU"
  bottom: "conv0"
  top: "conv0"
}
layer {
  name: "conv1/dw"
  type: "Convolution"
  bottom: "conv0"
  top: "conv1/dw"
  param {
    lr_mult: 0.1
    decay_mult: 0.1
  }
  convolution_param {
    num_output: 32
    bias_term: false
    pad: 1
    kernel_size: 3
    group: 32
    weight_filler {
      type: "msra"
    }
  }
}
layer {
  name: "conv1/dw/bn"
  type: "BatchNorm"
  bottom: "conv1/dw"
  top: "conv1/dw"
}
layer {
  name: "conv1/dw/scale"
  type: "Scale"
  bottom: "conv1/dw"
  top: "conv1/dw"
  param {
    lr_mult: 0.1
    decay_mult: 0
  }
  param {
    lr_mult: 0.2
    decay_mult: 0
  }
  scale_param {
    filler {
      value: 1
    }
    bias_term: true
    bias_filler {
      value: 0
    }
  }
}
layer {
  name: "conv1/dw/relu"
  type: "ReLU"
  bottom: "conv1/dw"
  top: "conv1/dw"
}
layer {
  name: "conv1"
  type: "Convolution"
  bottom: "conv1/dw"
  top: "conv1"
  param {
    lr_mult: 0.1
    decay_mult: 0.1
  }
  convolution_param {
    num_output: 64
    bias_term: false
    kernel_size: 1
    weight_filler {
      type: "msra"
    }
  }
}
layer {
  name: "conv1/bn"
  type: "BatchNorm"
  bottom: "conv1"
  top: "conv1"
}
layer {
  name: "conv1/scale"
  type: "Scale"
  bottom: "conv1"
  top: "conv1"
  param {
    lr_mult: 0.1
    decay_mult: 0
  }
  param {
    lr_mult: 0.2
    decay_mult: 0
  }
  scale_param {
    filler {
      value: 1
    }
    bias_term: true
    bias_filler {
      value: 0
    }
  }
}
layer {
  name: "conv1/relu"
  type: "ReLU"
  bottom: "conv1"
  top: "conv1"
}
layer {
  name: "conv2/dw"
  type: "Convolution"
  bottom: "conv1"
  top: "conv2/dw"
  param {
    lr_mult: 0.1
    decay_mult: 0.1
  }
  convolution_param {
    num_output: 64
    bias_term: false
    pad: 1
    kernel_size: 3
    group: 64
    stride: 2
    weight_filler {
      type: "msra"
    }
  }
}
layer {
  name: "conv2/dw/bn"
  type: "BatchNorm"
  bottom: "conv2/dw"
  top: "conv2/dw"
}
layer {
  name: "conv2/dw/scale"
  type: "Scale"
  bottom: "conv2/dw"
  top: "conv2/dw"
  param {
    lr_mult: 0.1
    decay_mult: 0
  }
  param {
    lr_mult: 0.2
    decay_mult: 0
  }
  scale_param {
    filler {
      value: 1
    }
    bias_term: true
    bias_filler {
      value: 0
    }
  }
}
layer {
  name: "conv2/dw/relu"
  type: "ReLU"
  bottom: "conv2/dw"
  top: "conv2/dw"
}
layer {
  name: "conv2"
  type: "Convolution"
  bottom: "conv2/dw"
  top: "conv2"
  param {
    lr_mult: 0.1
    decay_mult: 0.1
  }
  convolution_param {
    num_output: 128
    bias_term: false
    kernel_size: 1
    weight_filler {
      type: "msra"
    }
  }
}
layer {
  name: "conv2/bn"
  type: "BatchNorm"
  bottom: "conv2"
  top: "conv2"
}
layer {
  name: "conv2/scale"
  type: "Scale"
  bottom: "conv2"
  top: "conv2"
  param {
    lr_mult: 0.1
    decay_mult: 0
  }
  param {
    lr_mult: 0.2
    decay_mult: 0
  }
  scale_param {
    filler {
      value: 1
    }
    bias_term: true
    bias_filler {
      value: 0
    }
  }
}
layer {
  name: "conv2/relu"
  type: "ReLU"
  bottom: "conv2"
  top: "conv2"
}
layer {
  name: "conv3/dw"
  type: "Convolution"
  bottom: "conv2"
  top: "conv3/dw"
  param {
    lr_mult: 0.1
    decay_mult: 0.1
  }
  convolution_param {
    num_output: 128
    bias_term: false
    pad: 1
    kernel_size: 3
    group: 128
    weight_filler {
      type: "msra"
    }
  }
}
layer {
  name: "conv3/dw/bn"
  type: "BatchNorm"
  bottom: "conv3/dw"
  top: "conv3/dw"
}
layer {
  name: "conv3/dw/scale"
  type: "Scale"
  bottom: "conv3/dw"
  top: "conv3/dw"
  param {
    lr_mult: 0.1
    decay_mult: 0
  }
  param {
    lr_mult: 0.2
    decay_mult: 0
  }
  scale_param {
    filler {
      value: 1
    }
    bias_term: true
    bias_filler {
      value: 0
    }
  }
}
layer {
  name: "conv3/dw/relu"
  type: "ReLU"
  bottom: "conv3/dw"
  top: "conv3/dw"
}
layer {
  name: "conv3"
  type: "Convolution"
  bottom: "conv3/dw"
  top: "conv3"
  param {
    lr_mult: 0.1
    decay_mult: 0.1
  }
  convolution_param {
    num_output: 128
    bias_term: false
    kernel_size: 1
    weight_filler {
      type: "msra"
    }
  }
}
layer {
  name: "conv3/bn"
  type: "BatchNorm"
  bottom: "conv3"
  top: "conv3"
}
layer {
  name: "conv3/scale"
  type: "Scale"
  bottom: "conv3"
  top: "conv3"
  param {
    lr_mult: 0.1
    decay_mult: 0
  }
  param {
    lr_mult: 0.2
    decay_mult: 0
  }
  scale_param {
    filler {
      value: 1
    }
    bias_term: true
    bias_filler {
      value: 0
    }
  }
}
layer {
  name: "conv3/relu"
  type: "ReLU"
  bottom: "conv3"
  top: "conv3"
}
layer {
  name: "conv4/dw"
  type: "Convolution"
  bottom: "conv3"
  top: "conv4/dw"
  param {
    lr_mult: 0.1
    decay_mult: 0.1
  }
  convolution_param {
    num_output: 128
    bias_term: false
    pad: 1
    kernel_size: 3
    group: 128
    stride: 2
    weight_filler {
      type: "msra"
    }
  }
}
layer {
  name: "conv4/dw/bn"
  type: "BatchNorm"
  bottom: "conv4/dw"
  top: "conv4/dw"
}
layer {
  name: "conv4/dw/scale"
  type: "Scale"
  bottom: "conv4/dw"
  top: "conv4/dw"
  param {
    lr_mult: 0.1
    decay_mult: 0
  }
  param {
    lr_mult: 0.2
    decay_mult: 0
  }
  scale_param {
    filler {
      value: 1
    }
    bias_term: true
    bias_filler {
      value: 0
    }
  }
}
layer {
  name: "conv4/dw/relu"
  type: "ReLU"
  bottom: "conv4/dw"
  top: "conv4/dw"
}
layer {
  name: "conv4"
  type: "Convolution"
  bottom: "conv4/dw"
  top: "conv4"
  param {
    lr_mult: 0.1
    decay_mult: 0.1
  }
  convolution_param {
    num_output: 256
    bias_term: false
    kernel_size: 1
    weight_filler {
      type: "msra"
    }
  }
}
layer {
  name: "conv4/bn"
  type: "BatchNorm"
  bottom: "conv4"
  top: "conv4"
}
layer {
  name: "conv4/scale"
  type: "Scale"
  bottom: "conv4"
  top: "conv4"
  param {
    lr_mult: 0.1
    decay_mult: 0
  }
  param {
    lr_mult: 0.2
    decay_mult: 0
  }
  scale_param {
    filler {
      value: 1
    }
    bias_term: true
    bias_filler {
      value: 0
    }
  }
}
layer {
  name: "conv4/relu"
  type: "ReLU"
  bottom: "conv4"
  top: "conv4"
}
layer {
  name: "conv5/dw"
  type: "Convolution"
  bottom: "conv4"
  top: "conv5/dw"
  param {
    lr_mult: 0.1
    decay_mult: 0.1
  }
  convolution_param {
    num_output: 256
    bias_term: false
    pad: 1
    kernel_size: 3
    group: 256
    weight_filler {
      type: "msra"
    }
  }
}
layer {
  name: "conv5/dw/bn"
  type: "BatchNorm"
  bottom: "conv5/dw"
  top: "conv5/dw"
}
layer {
  name: "conv5/dw/scale"
  type: "Scale"
  bottom: "conv5/dw"
  top: "conv5/dw"
  param {
    lr_mult: 0.1
    decay_mult: 0
  }
  param {
    lr_mult: 0.2
    decay_mult: 0
  }
  scale_param {
    filler {
      value: 1
    }
    bias_term: true
    bias_filler {
      value: 0
    }
  }
}
layer {
  name: "conv5/dw/relu"
  type: "ReLU"
  bottom: "conv5/dw"
  top: "conv5/dw"
}
layer {
  name: "conv5"
  type: "Convolution"
  bottom: "conv5/dw"
  top: "conv5"
  param {
    lr_mult: 0.1
    decay_mult: 0.1
  }
  convolution_param {
    num_output: 256
    bias_term: false
    kernel_size: 1
    weight_filler {
      type: "msra"
    }
  }
}
layer {
  name: "conv5/bn"
  type: "BatchNorm"
  bottom: "conv5"
  top: "conv5"
}
layer {
  name: "conv5/scale"
  type: "Scale"
  bottom: "conv5"
  top: "conv5"
  param {
    lr_mult: 0.1
    decay_mult: 0
  }
  param {
    lr_mult: 0.2
    decay_mult: 0
  }
  scale_param {
    filler {
      value: 1
    }
    bias_term: true
    bias_filler {
      value: 0
    }
  }
}
layer {
  name: "conv5/relu"
  type: "ReLU"
  bottom: "conv5"
  top: "conv5"
}
layer {
  name: "conv6/dw"
  type: "Convolution"
  bottom: "conv5"
  top: "conv6/dw"
  param {
    lr_mult: 0.1
    decay_mult: 0.1
  }
  convolution_param {
    num_output: 256
    bias_term: false
    pad: 1
    kernel_size: 3
    group: 256
    stride: 2
    weight_filler {
      type: "msra"
    }
  }
}
layer {
  name: "conv6/dw/bn"
  type: "BatchNorm"
  bottom: "conv6/dw"
  top: "conv6/dw"
}
layer {
  name: "conv6/dw/scale"
  type: "Scale"
  bottom: "conv6/dw"
  top: "conv6/dw"
  param {
    lr_mult: 0.1
    decay_mult: 0
  }
  param {
    lr_mult: 0.2
    decay_mult: 0
  }
  scale_param {
    filler {
      value: 1
    }
    bias_term: true
    bias_filler {
      value: 0
    }
  }
}
layer {
  name: "conv6/dw/relu"
  type: "ReLU"
  bottom: "conv6/dw"
  top: "conv6/dw"
}
layer {
  name: "conv6"
  type: "Convolution"
  bottom: "conv6/dw"
  top: "conv6"
  param {
    lr_mult: 0.1
    decay_mult: 0.1
  }
  convolution_param {
    num_output: 512
    bias_term: false
    kernel_size: 1
    weight_filler {
      type: "msra"
    }
  }
}
layer {
  name: "conv6/bn"
  type: "BatchNorm"
  bottom: "conv6"
  top: "conv6"
}
layer {
  name: "conv6/scale"
  type: "Scale"
  bottom: "conv6"
  top: "conv6"
  param {
    lr_mult: 0.1
    decay_mult: 0
  }
  param {
    lr_mult: 0.2
    decay_mult: 0
  }
  scale_param {
    filler {
      value: 1
    }
    bias_term: true
    bias_filler {
      value: 0
    }
  }
}
layer {
  name: "conv6/relu"
  type: "ReLU"
  bottom: "conv6"
  top: "conv6"
}
layer {
  name: "conv7/dw"
  type: "Convolution"
  bottom: "conv6"
  top: "conv7/dw"
  param {
    lr_mult: 0.1
    decay_mult: 0.1
  }
  convolution_param {
    num_output: 512
    bias_term: false
    pad: 1
    kernel_size: 3
    group: 512
    weight_filler {
      type: "msra"
    }
  }
}
layer {
  name: "conv7/dw/bn"
  type: "BatchNorm"
  bottom: "conv7/dw"
  top: "conv7/dw"
}
layer {
  name: "conv7/dw/scale"
  type: "Scale"
  bottom: "conv7/dw"
  top: "conv7/dw"
  param {
    lr_mult: 0.1
    decay_mult: 0
  }
  param {
    lr_mult: 0.2
    decay_mult: 0
  }
  scale_param {
    filler {
      value: 1
    }
    bias_term: true
    bias_filler {
      value: 0
    }
  }
}
layer {
  name: "conv7/dw/relu"
  type: "ReLU"
  bottom: "conv7/dw"
  top: "conv7/dw"
}
layer {
  name: "conv7"
  type: "Convolution"
  bottom: "conv7/dw"
  top: "conv7"
  param {
    lr_mult: 0.1
    decay_mult: 0.1
  }
  convolution_param {
    num_output: 512
    bias_term: false
    kernel_size: 1
    weight_filler {
      type: "msra"
    }
  }
}
layer {
  name: "conv7/bn"
  type: "BatchNorm"
  bottom: "conv7"
  top: "conv7"
}
layer {
  name: "conv7/scale"
  type: "Scale"
  bottom: "conv7"
  top: "conv7"
  param {
    lr_mult: 0.1
    decay_mult: 0
  }
  param {
    lr_mult: 0.2
    decay_mult: 0
  }
  scale_param {
    filler {
      value: 1
    }
    bias_term: true
    bias_filler {
      value: 0
    }
  }
}
layer {
  name: "conv7/relu"
  type: "ReLU"
  bottom: "conv7"
  top: "conv7"
}
layer {
  name: "conv8/dw"
  type: "Convolution"
  bottom: "conv7"
  top: "conv8/dw"
  param {
    lr_mult: 0.1
    decay_mult: 0.1
  }
  convolution_param {
    num_output: 512
    bias_term: false
    pad: 1
    kernel_size: 3
    group: 512
    weight_filler {
      type: "msra"
    }
  }
}
layer {
  name: "conv8/dw/bn"
  type: "BatchNorm"
  bottom: "conv8/dw"
  top: "conv8/dw"
}
layer {
  name: "conv8/dw/scale"
  type: "Scale"
  bottom: "conv8/dw"
  top: "conv8/dw"
  param {
    lr_mult: 0.1
    decay_mult: 0
  }
  param {
    lr_mult: 0.2
    decay_mult: 0
  }
  scale_param {
    filler {
      value: 1
    }
    bias_term: true
    bias_filler {
      value: 0
    }
  }
}
layer {
  name: "conv8/dw/relu"
  type: "ReLU"
  bottom: "conv8/dw"
  top: "conv8/dw"
}
layer {
  name: "conv8"
  type: "Convolution"
  bottom: "conv8/dw"
  top: "conv8"
  param {
    lr_mult: 0.1
    decay_mult: 0.1
  }
  convolution_param {
    num_output: 512
    bias_term: false
    kernel_size: 1
    weight_filler {
      type: "msra"
    }
  }
}
layer {
  name: "conv8/bn"
  type: "BatchNorm"
  bottom: "conv8"
  top: "conv8"
}
layer {
  name: "conv8/scale"
  type: "Scale"
  bottom: "conv8"
  top: "conv8"
  param {
    lr_mult: 0.1
    decay_mult: 0
  }
  param {
    lr_mult: 0.2
    decay_mult: 0
  }
  scale_param {
    filler {
      value: 1
    }
    bias_term: true
    bias_filler {
      value: 0
    }
  }
}
layer {
  name: "conv8/relu"
  type: "ReLU"
  bottom: "conv8"
  top: "conv8"
}
layer {
  name: "conv9/dw"
  type: "Convolution"
  bottom: "conv8"
  top: "conv9/dw"
  param {
    lr_mult: 0.1
    decay_mult: 0.1
  }
  convolution_param {
    num_output: 512
    bias_term: false
    pad: 1
    kernel_size: 3
    group: 512
    weight_filler {
      type: "msra"
    }
  }
}
layer {
  name: "conv9/dw/bn"
  type: "BatchNorm"
  bottom: "conv9/dw"
  top: "conv9/dw"
}
layer {
  name: "conv9/dw/scale"
  type: "Scale"
  bottom: "conv9/dw"
  top: "conv9/dw"
  param {
    lr_mult: 0.1
    decay_mult: 0
  }
  param {
    lr_mult: 0.2
    decay_mult: 0
  }
  scale_param {
    filler {
      value: 1
    }
    bias_term: true
    bias_filler {
      value: 0
    }
  }
}
layer {
  name: "conv9/dw/relu"
  type: "ReLU"
  bottom: "conv9/dw"
  top: "conv9/dw"
}
layer {
  name: "conv9"
  type: "Convolution"
  bottom: "conv9/dw"
  top: "conv9"
  param {
    lr_mult: 0.1
    decay_mult: 0.1
  }
  convolution_param {
    num_output: 512
    bias_term: false
    kernel_size: 1
    weight_filler {
      type: "msra"
    }
  }
}
layer {
  name: "conv9/bn"
  type: "BatchNorm"
  bottom: "conv9"
  top: "conv9"
}
layer {
  name: "conv9/scale"
  type: "Scale"
  bottom: "conv9"
  top: "conv9"
  param {
    lr_mult: 0.1
    decay_mult: 0
  }
  param {
    lr_mult: 0.2
    decay_mult: 0
  }
  scale_param {
    filler {
      value: 1
    }
    bias_term: true
    bias_filler {
      value: 0
    }
  }
}
layer {
  name: "conv9/relu"
  type: "ReLU"
  bottom: "conv9"
  top: "conv9"
}
layer {
  name: "conv10/dw"
  type: "Convolution"
  bottom: "conv9"
  top: "conv10/dw"
  param {
    lr_mult: 0.1
    decay_mult: 0.1
  }
  convolution_param {
    num_output: 512
    bias_term: false
    pad: 1
    kernel_size: 3
    group: 512
    weight_filler {
      type: "msra"
    }
  }
}
layer {
  name: "conv10/dw/bn"
  type: "BatchNorm"
  bottom: "conv10/dw"
  top: "conv10/dw"
}
layer {
  name: "conv10/dw/scale"
  type: "Scale"
  bottom: "conv10/dw"
  top: "conv10/dw"
  param {
    lr_mult: 0.1
    decay_mult: 0
  }
  param {
    lr_mult: 0.2
    decay_mult: 0
  }
  scale_param {
    filler {
      value: 1
    }
    bias_term: true
    bias_filler {
      value: 0
    }
  }
}
layer {
  name: "conv10/dw/relu"
  type: "ReLU"
  bottom: "conv10/dw"
  top: "conv10/dw"
}
layer {
  name: "conv10"
  type: "Convolution"
  bottom: "conv10/dw"
  top: "conv10"
  param {
    lr_mult: 0.1
    decay_mult: 0.1
  }
  convolution_param {
    num_output: 512
    bias_term: false
    kernel_size: 1
    weight_filler {
      type: "msra"
    }
  }
}
layer {
  name: "conv10/bn"
  type: "BatchNorm"
  bottom: "conv10"
  top: "conv10"
}
layer {
  name: "conv10/scale"
  type: "Scale"
  bottom: "conv10"
  top: "conv10"
  param {
    lr_mult: 0.1
    decay_mult: 0
  }
  param {
    lr_mult: 0.2
    decay_mult: 0
  }
  scale_param {
    filler {
      value: 1
    }
    bias_term: true
    bias_filler {
      value: 0
    }
  }
}
layer {
  name: "conv10/relu"
  type: "ReLU"
  bottom: "conv10"
  top: "conv10"
}
layer {
  name: "conv11/dw"
  type: "Convolution"
  bottom: "conv10"
  top: "conv11/dw"
  param {
    lr_mult: 0.1
    decay_mult: 0.1
  }
  convolution_param {
    num_output: 512
    bias_term: false
    pad: 1
    kernel_size: 3
    group: 512
    weight_filler {
      type: "msra"
    }
  }
}
layer {
  name: "conv11/dw/bn"
  type: "BatchNorm"
  bottom: "conv11/dw"
  top: "conv11/dw"
}
layer {
  name: "conv11/dw/scale"
  type: "Scale"
  bottom: "conv11/dw"
  top: "conv11/dw"
  param {
    lr_mult: 0.1
    decay_mult: 0
  }
  param {
    lr_mult: 0.2
    decay_mult: 0
  }
  scale_param {
    filler {
      value: 1
    }
    bias_term: true
    bias_filler {
      value: 0
    }
  }
}
layer {
  name: "conv11/dw/relu"
  type: "ReLU"
  bottom: "conv11/dw"
  top: "conv11/dw"
}
layer {
  name: "conv11"
  type: "Convolution"
  bottom: "conv11/dw"
  top: "conv11"
  param {
    lr_mult: 0.1
    decay_mult: 0.1
  }
  convolution_param {
    num_output: 512
    bias_term: false
    kernel_size: 1
    weight_filler {
      type: "msra"
    }
  }
}
layer {
  name: "conv11/bn"
  type: "BatchNorm"
  bottom: "conv11"
  top: "conv11"
}
layer {
  name: "conv11/scale"
  type: "Scale"
  bottom: "conv11"
  top: "conv11"
  param {
    lr_mult: 0.1
    decay_mult: 0
  }
  param {
    lr_mult: 0.2
    decay_mult: 0
  }
  scale_param {
    filler {
      value: 1
    }
    bias_term: true
    bias_filler {
      value: 0
    }
  }
}
layer {
  name: "conv11/relu"
  type: "ReLU"
  bottom: "conv11"
  top: "conv11"
}
layer {
  name: "conv12/dw"
  type: "Convolution"
  bottom: "conv11"
  top: "conv12/dw"
  param {
    lr_mult: 0.1
    decay_mult: 0.1
  }
  convolution_param {
    num_output: 512
    bias_term: false
    pad: 1
    kernel_size: 3
    group: 512
    stride: 2
    weight_filler {
      type: "msra"
    }
  }
}
layer {
  name: "conv12/dw/bn"
  type: "BatchNorm"
  bottom: "conv12/dw"
  top: "conv12/dw"
}
layer {
  name: "conv12/dw/scale"
  type: "Scale"
  bottom: "conv12/dw"
  top: "conv12/dw"
  param {
    lr_mult: 0.1
    decay_mult: 0
  }
  param {
    lr_mult: 0.2
    decay_mult: 0
  }
  scale_param {
    filler {
      value: 1
    }
    bias_term: true
    bias_filler {
      value: 0
    }
  }
}
layer {
  name: "conv12/dw/relu"
  type: "ReLU"
  bottom: "conv12/dw"
  top: "conv12/dw"
}
layer {
  name: "conv12"
  type: "Convolution"
  bottom: "conv12/dw"
  top: "conv12"
  param {
    lr_mult: 0.1
    decay_mult: 0.1
  }
  convolution_param {
    num_output: 1024
    bias_term: false
    kernel_size: 1
    weight_filler {
      type: "msra"
    }
  }
}
layer {
  name: "conv12/bn"
  type: "BatchNorm"
  bottom: "conv12"
  top: "conv12"
}
layer {
  name: "conv12/scale"
  type: "Scale"
  bottom: "conv12"
  top: "conv12"
  param {
    lr_mult: 0.1
    decay_mult: 0
  }
  param {
    lr_mult: 0.2
    decay_mult: 0
  }
  scale_param {
    filler {
      value: 1
    }
    bias_term: true
    bias_filler {
      value: 0
    }
  }
}
layer {
  name: "conv12/relu"
  type: "ReLU"
  bottom: "conv12"
  top: "conv12"
}
layer {
  name: "conv13/dw"
  type: "Convolution"
  bottom: "conv12"
  top: "conv13/dw"
  param {
    lr_mult: 0.1
    decay_mult: 0.1
  }
  convolution_param {
    num_output: 1024
    bias_term: false
    pad: 1
    kernel_size: 3
    group: 1024
    weight_filler {
      type: "msra"
    }
  }
}
layer {
  name: "conv13/dw/bn"
  type: "BatchNorm"
  bottom: "conv13/dw"
  top: "conv13/dw"
}
layer {
  name: "conv13/dw/scale"
  type: "Scale"
  bottom: "conv13/dw"
  top: "conv13/dw"
  param {
    lr_mult: 0.1
    decay_mult: 0
  }
  param {
    lr_mult: 0.2
    decay_mult: 0
  }
  scale_param {
    filler {
      value: 1
    }
    bias_term: true
    bias_filler {
      value: 0
    }
  }
}
layer {
  name: "conv13/dw/relu"
  type: "ReLU"
  bottom: "conv13/dw"
  top: "conv13/dw"
}
layer {
  name: "conv13"
  type: "Convolution"
  bottom: "conv13/dw"
  top: "conv13"
  param {
    lr_mult: 0.1
    decay_mult: 0.1
  }
  convolution_param {
    num_output: 1024
    bias_term: false
    kernel_size: 1
    weight_filler {
      type: "msra"
    }
  }
}
layer {
  name: "conv13/bn"
  type: "BatchNorm"
  bottom: "conv13"
  top: "conv13"
}
layer {
  name: "conv13/scale"
  type: "Scale"
  bottom: "conv13"
  top: "conv13"
  param {
    lr_mult: 0.1
    decay_mult: 0
  }
  param {
    lr_mult: 0.2
    decay_mult: 0
  }
  scale_param {
    filler {
      value: 1
    }
    bias_term: true
    bias_filler {
      value: 0
    }
  }
}
layer {
  name: "conv13/relu"
  type: "ReLU"
  bottom: "conv13"
  top: "conv13"
}
layer {
  name: "conv14_1"
  type: "Convolution"
  bottom: "conv13"
  top: "conv14_1"
  param {
    lr_mult: 0.1
    decay_mult: 0.1
  }
  convolution_param {
    num_output: 256
    bias_term: false
    kernel_size: 1
    weight_filler {
      type: "msra"
    }
  }
}
layer {
  name: "conv14_1/bn"
  type: "BatchNorm"
  bottom: "conv14_1"
  top: "conv14_1"
}
layer {
  name: "conv14_1/scale"
  type: "Scale"
  bottom: "conv14_1"
  top: "conv14_1"
  param {
    lr_mult: 0.1
    decay_mult: 0
  }
  param {
    lr_mult: 0.2
    decay_mult: 0
  }
  scale_param {
    filler {
      value: 1
    }
    bias_term: true
    bias_filler {
      value: 0
    }
  }
}
layer {
  name: "conv14_1/relu"
  type: "ReLU"
  bottom: "conv14_1"
  top: "conv14_1"
}
layer {
  name: "conv14_2"
  type: "Convolution"
  bottom: "conv14_1"
  top: "conv14_2"
  param {
    lr_mult: 0.1
    decay_mult: 0.1
  }
  convolution_param {
    num_output: 512
    bias_term: false
    pad: 1
    kernel_size: 3
    stride: 2
    weight_filler {
      type: "msra"
    }
  }
}
layer {
  name: "conv14_2/bn"
  type: "BatchNorm"
  bottom: "conv14_2"
  top: "conv14_2"
}
layer {
  name: "conv14_2/scale"
  type: "Scale"
  bottom: "conv14_2"
  top: "conv14_2"
  param {
    lr_mult: 0.1
    decay_mult: 0
  }
  param {
    lr_mult: 0.2
    decay_mult: 0
  }
  scale_param {
    filler {
      value: 1
    }
    bias_term: true
    bias_filler {
      value: 0
    }
  }
}
layer {
  name: "conv14_2/relu"
  type: "ReLU"
  bottom: "conv14_2"
  top: "conv14_2"
}
layer {
  name: "conv15_1"
  type: "Convolution"
  bottom: "conv14_2"
  top: "conv15_1"
  param {
    lr_mult: 0.1
    decay_mult: 0.1
  }
  convolution_param {
    num_output: 128
    bias_term: false
    kernel_size: 1
    weight_filler {
      type: "msra"
    }
  }
}
layer {
  name: "conv15_1/bn"
  type: "BatchNorm"
  bottom: "conv15_1"
  top: "conv15_1"
}
layer {
  name: "conv15_1/scale"
  type: "Scale"
  bottom: "conv15_1"
  top: "conv15_1"
  param {
    lr_mult: 0.1
    decay_mult: 0
  }
  param {
    lr_mult: 0.2
    decay_mult: 0
  }
  scale_param {
    filler {
      value: 1
    }
    bias_term: true
    bias_filler {
      value: 0
    }
  }
}
layer {
  name: "conv15_1/relu"
  type: "ReLU"
  bottom: "conv15_1"
  top: "conv15_1"
}
layer {
  name: "conv15_2"
  type: "Convolution"
  bottom: "conv15_1"
  top: "conv15_2"
  param {
    lr_mult: 0.1
    decay_mult: 0.1
  }
  convolution_param {
    num_output: 256
    bias_term: false
    pad: 1
    kernel_size: 3
    stride: 2
    weight_filler {
      type: "msra"
    }
  }
}
layer {
  name: "conv15_2/bn"
  type: "BatchNorm"
  bottom: "conv15_2"
  top: "conv15_2"
}
layer {
  name: "conv15_2/scale"
  type: "Scale"
  bottom: "conv15_2"
  top: "conv15_2"
  param {
    lr_mult: 0.1
    decay_mult: 0
  }
  param {
    lr_mult: 0.2
    decay_mult: 0
  }
  scale_param {
    filler {
      value: 1
    }
    bias_term: true
    bias_filler {
      value: 0
    }
  }
}
layer {
  name: "conv15_2/relu"
  type: "ReLU"
  bottom: "conv15_2"
  top: "conv15_2"
}
layer {
  name: "conv16_1"
  type: "Convolution"
  bottom: "conv15_2"
  top: "conv16_1"
  param {
    lr_mult: 0.1
    decay_mult: 0.1
  }
  convolution_param {
    num_output: 128
    bias_term: false
    kernel_size: 1
    weight_filler {
      type: "msra"
    }
  }
}
layer {
  name: "conv16_1/bn"
  type: "BatchNorm"
  bottom: "conv16_1"
  top: "conv16_1"
}
layer {
  name: "conv16_1/scale"
  type: "Scale"
  bottom: "conv16_1"
  top: "conv16_1"
  param {
    lr_mult: 0.1
    decay_mult: 0
  }
  param {
    lr_mult: 0.2
    decay_mult: 0
  }
  scale_param {
    filler {
      value: 1
    }
    bias_term: true
    bias_filler {
      value: 0
    }
  }
}
layer {
  name: "conv16_1/relu"
  type: "ReLU"
  bottom: "conv16_1"
  top: "conv16_1"
}
layer {
  name: "conv16_2"
  type: "Convolution"
  bottom: "conv16_1"
  top: "conv16_2"
  param {
    lr_mult: 0.1
    decay_mult: 0.1
  }
  convolution_param {
    num_output: 256
    bias_term: false
    pad: 1
    kernel_size: 3
    stride: 2
    weight_filler {
      type: "msra"
    }
  }
}
layer {
  name: "conv16_2/bn"
  type: "BatchNorm"
  bottom: "conv16_2"
  top: "conv16_2"
}
layer {
  name: "conv16_2/scale"
  type: "Scale"
  bottom: "conv16_2"
  top: "conv16_2"
  param {
    lr_mult: 0.1
    decay_mult: 0
  }
  param {
    lr_mult: 0.2
    decay_mult: 0
  }
  scale_param {
    filler {
      value: 1
    }
    bias_term: true
    bias_filler {
      value: 0
    }
  }
}
layer {
  name: "conv16_2/relu"
  type: "ReLU"
  bottom: "conv16_2"
  top: "conv16_2"
}
layer {
  name: "conv17_1"
  type: "Convolution"
  bottom: "conv16_2"
  top: "conv17_1"
  param {
    lr_mult: 0.1
    decay_mult: 0.1
  }
  convolution_param {
    num_output: 64
    bias_term: false
    kernel_size: 1
    weight_filler {
      type: "msra"
    }
  }
}
layer {
  name: "conv17_1/bn"
  type: "BatchNorm"
  bottom: "conv17_1"
  top: "conv17_1"
}
layer {
  name: "conv17_1/scale"
  type: "Scale"
  bottom: "conv17_1"
  top: "conv17_1"
  param {
    lr_mult: 0.1
    decay_mult: 0
  }
  param {
    lr_mult: 0.2
    decay_mult: 0
  }
  scale_param {
    filler {
      value: 1
    }
    bias_term: true
    bias_filler {
      value: 0
    }
  }
}
layer {
  name: "conv17_1/relu"
  type: "ReLU"
  bottom: "conv17_1"
  top: "conv17_1"
}
layer {
  name: "conv17_2"
  type: "Convolution"
  bottom: "conv17_1"
  top: "conv17_2"
  param {
    lr_mult: 0.1
    decay_mult: 0.1
  }
  convolution_param {
    num_output: 128
    bias_term: false
    pad: 1
    kernel_size: 3
    stride: 2
    weight_filler {
      type: "msra"
    }
  }
}
layer {
  name: "conv17_2/bn"
  type: "BatchNorm"
  bottom: "conv17_2"
  top: "conv17_2"
}
layer {
  name: "conv17_2/scale"
  type: "Scale"
  bottom: "conv17_2"
  top: "conv17_2"
  param {
    lr_mult: 0.1
    decay_mult: 0
  }
  param {
    lr_mult: 0.2
    decay_mult: 0
  }
  scale_param {
    filler {
      value: 1
    }
    bias_term: true
    bias_filler {
      value: 0
    }
  }
}
layer {
  name: "conv17_2/relu"
  type: "ReLU"
  bottom: "conv17_2"
  top: "conv17_2"
}
layer {
  name: "conv11_mbox_loc"
  type: "Convolution"
  bottom: "conv11"
  top: "conv11_mbox_loc"
  param {
    lr_mult: 0.1
    decay_mult: 0.1
  }
  param {
    lr_mult: 0.2
    decay_mult: 0
  }
  convolution_param {
    num_output: 12
    kernel_size: 1
    weight_filler {
      type: "msra"
    }
    bias_filler {
      type: "constant"
      value: 0
    }
  }
}
layer {
  name: "conv11_mbox_loc_perm"
  type: "Permute"
  bottom: "conv11_mbox_loc"
  top: "conv11_mbox_loc_perm"
  permute_param {
    order: 0
    order: 2
    order: 3
    order: 1
  }
}
layer {
  name: "conv11_mbox_loc_flat"
  type: "Flatten"
  bottom: "conv11_mbox_loc_perm"
  top: "conv11_mbox_loc_flat"
  flatten_param {
    axis: 1
  }
}
layer {
  name: "conv11_mbox_conf"
  type: "Convolution"
  bottom: "conv11"
  top: "conv11_mbox_conf"
  param {
    lr_mult: 1
    decay_mult: 1
  }
  param {
    lr_mult: 2
    decay_mult: 0
  }
  convolution_param {
    num_output: 63
    kernel_size: 1
    weight_filler {
      type: "msra"
    }
    bias_filler {
      type: "constant"
      value: 0
    }
  }
}
layer {
  name: "conv11_mbox_conf_perm"
  type: "Permute"
  bottom: "conv11_mbox_conf"
  top: "conv11_mbox_conf_perm"
  permute_param {
    order: 0
    order: 2
    order: 3
    order: 1
  }
}
layer {
  name: "conv11_mbox_conf_flat"
  type: "Flatten"
  bottom: "conv11_mbox_conf_perm"
  top: "conv11_mbox_conf_flat"
  flatten_param {
    axis: 1
  }
}
layer {
  name: "conv11_mbox_priorbox"
  type: "PriorBox"
  bottom: "conv11"
  bottom: "data"
  top: "conv11_mbox_priorbox"
  prior_box_param {
    min_size: 60
    aspect_ratio: 2
    flip: true
    clip: false
    variance: 0.1
    variance: 0.1
    variance: 0.2
    variance: 0.2
    offset: 0.5
  }
}
layer {
  name: "conv13_mbox_loc"
  type: "Convolution"
  bottom: "conv13"
  top: "conv13_mbox_loc"
  param {
    lr_mult: 0.1
    decay_mult: 0.1
  }
  param {
    lr_mult: 0.2
    decay_mult: 0
  }
  convolution_param {
    num_output: 24
    kernel_size: 1
    weight_filler {
      type: "msra"
    }
    bias_filler {
      type: "constant"
      value: 0
    }
  }
}
layer {
  name: "conv13_mbox_loc_perm"
  type: "Permute"
  bottom: "conv13_mbox_loc"
  top: "conv13_mbox_loc_perm"
  permute_param {
    order: 0
    order: 2
    order: 3
    order: 1
  }
}
layer {
  name: "conv13_mbox_loc_flat"
  type: "Flatten"
  bottom: "conv13_mbox_loc_perm"
  top: "conv13_mbox_loc_flat"
  flatten_param {
    axis: 1
  }
}
layer {
  name: "conv13_mbox_conf"
  type: "Convolution"
  bottom: "conv13"
  top: "conv13_mbox_conf"
  param {
    lr_mult: 1
    decay_mult: 1
  }
  param {
    lr_mult: 2
    decay_mult: 0
  }
  convolution_param {
    num_output: 126
    kernel_size: 1
    weight_filler {
      type: "msra"
    }
    bias_filler {
      type: "constant"
      value: 0
    }
  }
}
layer {
  name: "conv13_mbox_conf_perm"
  type: "Permute"
  bottom: "conv13_mbox_conf"
  top: "conv13_mbox_conf_perm"
  permute_param {
    order: 0
    order: 2
    order: 3
    order: 1
  }
}
layer {
  name: "conv13_mbox_conf_flat"
  type: "Flatten"
  bottom: "conv13_mbox_conf_perm"
  top: "conv13_mbox_conf_flat"
  flatten_param {
    axis: 1
  }
}
layer {
  name: "conv13_mbox_priorbox"
  type: "PriorBox"
  bottom: "conv13"
  bottom: "data"
  top: 
I0902 16:06:26.476089 27875 layer_factory.hpp:77] Creating layer input
I0902 16:06:26.476099 27875 net.cpp:100] Creating Layer input
I0902 16:06:26.476104 27875 net.cpp:408] input -> data
I0902 16:06:26.476114 27875 net.cpp:150] Setting up input
I0902 16:06:26.476119 27875 net.cpp:157] Top shape: 1 3 300 300 (270000)
I0902 16:06:26.476122 27875 net.cpp:165] Memory required for data: 1080000
I0902 16:06:26.476125 27875 layer_factory.hpp:77] Creating layer data_input_0_split
I0902 16:06:26.476130 27875 net.cpp:100] Creating Layer data_input_0_split
I0902 16:06:26.476135 27875 net.cpp:434] data_input_0_split <- data
I0902 16:06:26.476138 27875 net.cpp:408] data_input_0_split -> data_input_0_split_0
I0902 16:06:26.476148 27875 net.cpp:408] data_input_0_split -> data_input_0_split_1
I0902 16:06:26.476155 27875 net.cpp:408] data_input_0_split -> data_input_0_split_2
I0902 16:06:26.476159 27875 net.cpp:408] data_input_0_split -> data_input_0_split_3
I0902 16:06:26.476163 27875 net.cpp:408] data_input_0_split -> data_input_0_split_4
I0902 16:06:26.476168 27875 net.cpp:408] data_input_0_split -> data_input_0_split_5
I0902 16:06:26.476172 27875 net.cpp:408] data_input_0_split -> data_input_0_split_6
I0902 16:06:26.476181 27875 net.cpp:150] Setting up data_input_0_split
I0902 16:06:26.476184 27875 net.cpp:157] Top shape: 1 3 300 300 (270000)
I0902 16:06:26.476187 27875 net.cpp:157] Top shape: 1 3 300 300 (270000)
I0902 16:06:26.476191 27875 net.cpp:157] Top shape: 1 3 300 300 (270000)
I0902 16:06:26.476195 27875 net.cpp:157] Top shape: 1 3 300 300 (270000)
I0902 16:06:26.476198 27875 net.cpp:157] Top shape: 1 3 300 300 (270000)
I0902 16:06:26.476202 27875 net.cpp:157] Top shape: 1 3 300 300 (270000)
I0902 16:06:26.476204 27875 net.cpp:157] Top shape: 1 3 300 300 (270000)
I0902 16:06:26.476207 27875 net.cpp:165] Memory required for data: 8640000
I0902 16:06:26.476210 27875 layer_factory.hpp:77] Creating layer conv0
I0902 16:06:26.476219 27875 net.cpp:100] Creating Layer conv0
I0902 16:06:26.476222 27875 net.cpp:434] conv0 <- data_input_0_split_0
I0902 16:06:26.476227 27875 net.cpp:408] conv0 -> conv0
I0902 16:06:26.476372 27875 net.cpp:150] Setting up conv0
I0902 16:06:26.476379 27875 net.cpp:157] Top shape: 1 32 150 150 (720000)
I0902 16:06:26.476382 27875 net.cpp:165] Memory required for data: 11520000
I0902 16:06:26.476388 27875 layer_factory.hpp:77] Creating layer conv0/bn
I0902 16:06:26.476393 27875 net.cpp:100] Creating Layer conv0/bn
I0902 16:06:26.476397 27875 net.cpp:434] conv0/bn <- conv0
I0902 16:06:26.476402 27875 net.cpp:395] conv0/bn -> conv0 (in-place)
I0902 16:06:26.476442 27875 net.cpp:150] Setting up conv0/bn
I0902 16:06:26.476447 27875 net.cpp:157] Top shape: 1 32 150 150 (720000)
I0902 16:06:26.476450 27875 net.cpp:165] Memory required for data: 14400000
I0902 16:06:26.476457 27875 layer_factory.hpp:77] Creating layer conv0/scale
I0902 16:06:26.476464 27875 net.cpp:100] Creating Layer conv0/scale
I0902 16:06:26.476469 27875 net.cpp:434] conv0/scale <- conv0
I0902 16:06:26.476472 27875 net.cpp:395] conv0/scale -> conv0 (in-place)
I0902 16:06:26.476480 27875 layer_factory.hpp:77] Creating layer conv0/scale
I0902 16:06:26.476549 27875 net.cpp:150] Setting up conv0/scale
I0902 16:06:26.476555 27875 net.cpp:157] Top shape: 1 32 150 150 (720000)
I0902 16:06:26.476558 27875 net.cpp:165] Memory required for data: 17280000
I0902 16:06:26.476563 27875 layer_factory.hpp:77] Creating layer conv0/relu
I0902 16:06:26.476569 27875 net.cpp:100] Creating Layer conv0/relu
I0902 16:06:26.476572 27875 net.cpp:434] conv0/relu <- conv0
I0902 16:06:26.476577 27875 net.cpp:395] conv0/relu -> conv0 (in-place)
I0902 16:06:26.476581 27875 net.cpp:150] Setting up conv0/relu
I0902 16:06:26.476585 27875 net.cpp:157] Top shape: 1 32 150 150 (720000)
I0902 16:06:26.476588 27875 net.cpp:165] Memory required for data: 20160000
I0902 16:06:26.476590 27875 layer_factory.hpp:77] Creating layer conv1/dw
I0902 16:06:26.476598 27875 net.cpp:100] Creating Layer conv1/dw
I0902 16:06:26.476600 27875 net.cpp:434] conv1/dw <- conv0
I0902 16:06:26.476605 27875 net.cpp:408] conv1/dw -> conv1/dw
I0902 16:06:26.476619 27875 net.cpp:150] Setting up conv1/dw
I0902 16:06:26.476624 27875 net.cpp:157] Top shape: 1 32 150 150 (720000)
I0902 16:06:26.476627 27875 net.cpp:165] Memory required for data: 23040000
I0902 16:06:26.476630 27875 layer_factory.hpp:77] Creating layer conv1/dw/bn
I0902 16:06:26.476635 27875 net.cpp:100] Creating Layer conv1/dw/bn
I0902 16:06:26.476639 27875 net.cpp:434] conv1/dw/bn <- conv1/dw
I0902 16:06:26.476642 27875 net.cpp:395] conv1/dw/bn -> conv1/dw (in-place)
I0902 16:06:26.476677 27875 net.cpp:150] Setting up conv1/dw/bn
I0902 16:06:26.476682 27875 net.cpp:157] Top shape: 1 32 150 150 (720000)
I0902 16:06:26.476688 27875 net.cpp:165] Memory required for data: 25920000
I0902 16:06:26.476696 27875 layer_factory.hpp:77] Creating layer conv1/dw/scale
I0902 16:06:26.476703 27875 net.cpp:100] Creating Layer conv1/dw/scale
I0902 16:06:26.476706 27875 net.cpp:434] conv1/dw/scale <- conv1/dw
I0902 16:06:26.476711 27875 net.cpp:395] conv1/dw/scale -> conv1/dw (in-place)
I0902 16:06:26.476717 27875 layer_factory.hpp:77] Creating layer conv1/dw/scale
I0902 16:06:26.476786 27875 net.cpp:150] Setting up conv1/dw/scale
I0902 16:06:26.476791 27875 net.cpp:157] Top shape: 1 32 150 150 (720000)
I0902 16:06:26.476794 27875 net.cpp:165] Memory required for data: 28800000
I0902 16:06:26.476799 27875 layer_factory.hpp:77] Creating layer conv1/dw/relu
I0902 16:06:26.476804 27875 net.cpp:100] Creating Layer conv1/dw/relu
I0902 16:06:26.476805 27875 net.cpp:434] conv1/dw/relu <- conv1/dw
I0902 16:06:26.476810 27875 net.cpp:395] conv1/dw/relu -> conv1/dw (in-place)
I0902 16:06:26.476815 27875 net.cpp:150] Setting up conv1/dw/relu
I0902 16:06:26.476819 27875 net.cpp:157] Top shape: 1 32 150 150 (720000)
I0902 16:06:26.476821 27875 net.cpp:165] Memory required for data: 31680000
I0902 16:06:26.476824 27875 layer_factory.hpp:77] Creating layer conv1
I0902 16:06:26.476830 27875 net.cpp:100] Creating Layer conv1
I0902 16:06:26.476832 27875 net.cpp:434] conv1 <- conv1/dw
I0902 16:06:26.476837 27875 net.cpp:408] conv1 -> conv1
I0902 16:06:26.476868 27875 net.cpp:150] Setting up conv1
I0902 16:06:26.476872 27875 net.cpp:157] Top shape: 1 64 150 150 (1440000)
I0902 16:06:26.476876 27875 net.cpp:165] Memory required for data: 37440000
I0902 16:06:26.476879 27875 layer_factory.hpp:77] Creating layer conv1/bn
I0902 16:06:26.476883 27875 net.cpp:100] Creating Layer conv1/bn
I0902 16:06:26.476887 27875 net.cpp:434] conv1/bn <- conv1
I0902 16:06:26.476891 27875 net.cpp:395] conv1/bn -> conv1 (in-place)
I0902 16:06:26.476927 27875 net.cpp:150] Setting up conv1/bn
I0902 16:06:26.476931 27875 net.cpp:157] Top shape: 1 64 150 150 (1440000)
I0902 16:06:26.476934 27875 net.cpp:165] Memory required for data: 43200000
I0902 16:06:26.476939 27875 layer_factory.hpp:77] Creating layer conv1/scale
I0902 16:06:26.476944 27875 net.cpp:100] Creating Layer conv1/scale
I0902 16:06:26.476948 27875 net.cpp:434] conv1/scale <- conv1
I0902 16:06:26.476953 27875 net.cpp:395] conv1/scale -> conv1 (in-place)
I0902 16:06:26.476958 27875 layer_factory.hpp:77] Creating layer conv1/scale
I0902 16:06:26.477025 27875 net.cpp:150] Setting up conv1/scale
I0902 16:06:26.477031 27875 net.cpp:157] Top shape: 1 64 150 150 (1440000)
I0902 16:06:26.477035 27875 net.cpp:165] Memory required for data: 48960000
I0902 16:06:26.477041 27875 layer_factory.hpp:77] Creating layer conv1/relu
I0902 16:06:26.477046 27875 net.cpp:100] Creating Layer conv1/relu
I0902 16:06:26.477049 27875 net.cpp:434] conv1/relu <- conv1
I0902 16:06:26.477053 27875 net.cpp:395] conv1/relu -> conv1 (in-place)
I0902 16:06:26.477057 27875 net.cpp:150] Setting up conv1/relu
I0902 16:06:26.477061 27875 net.cpp:157] Top shape: 1 64 150 150 (1440000)
I0902 16:06:26.477064 27875 net.cpp:165] Memory required for data: 54720000
I0902 16:06:26.477067 27875 layer_factory.hpp:77] Creating layer conv2/dw
I0902 16:06:26.477073 27875 net.cpp:100] Creating Layer conv2/dw
I0902 16:06:26.477077 27875 net.cpp:434] conv2/dw <- conv1
I0902 16:06:26.477080 27875 net.cpp:408] conv2/dw -> conv2/dw
I0902 16:06:26.477098 27875 net.cpp:150] Setting up conv2/dw
I0902 16:06:26.477102 27875 net.cpp:157] Top shape: 1 64 75 75 (360000)
I0902 16:06:26.477105 27875 net.cpp:165] Memory required for data: 56160000
I0902 16:06:26.477108 27875 layer_factory.hpp:77] Creating layer conv2/dw/bn
I0902 16:06:26.477113 27875 net.cpp:100] Creating Layer conv2/dw/bn
I0902 16:06:26.477115 27875 net.cpp:434] conv2/dw/bn <- conv2/dw
I0902 16:06:26.477120 27875 net.cpp:395] conv2/dw/bn -> conv2/dw (in-place)
I0902 16:06:26.477133 27875 net.cpp:150] Setting up conv2/dw/bn
I0902 16:06:26.477138 27875 net.cpp:157] Top shape: 1 64 75 75 (360000)
I0902 16:06:26.477144 27875 net.cpp:165] Memory required for data: 57600000
I0902 16:06:26.477149 27875 layer_factory.hpp:77] Creating layer conv2/dw/scale
I0902 16:06:26.477154 27875 net.cpp:100] Creating Layer conv2/dw/scale
I0902 16:06:26.477159 27875 net.cpp:434] conv2/dw/scale <- conv2/dw
I0902 16:06:26.477162 27875 net.cpp:395] conv2/dw/scale -> conv2/dw (in-place)
I0902 16:06:26.477169 27875 layer_factory.hpp:77] Creating layer conv2/dw/scale
I0902 16:06:26.477191 27875 net.cpp:150] Setting up conv2/dw/scale
I0902 16:06:26.477197 27875 net.cpp:157] Top shape: 1 64 75 75 (360000)
I0902 16:06:26.477200 27875 net.cpp:165] Memory required for data: 59040000
I0902 16:06:26.477205 27875 layer_factory.hpp:77] Creating layer conv2/dw/relu
I0902 16:06:26.477208 27875 net.cpp:100] Creating Layer conv2/dw/relu
I0902 16:06:26.477211 27875 net.cpp:434] conv2/dw/relu <- conv2/dw
I0902 16:06:26.477214 27875 net.cpp:395] conv2/dw/relu -> conv2/dw (in-place)
I0902 16:06:26.477218 27875 net.cpp:150] Setting up conv2/dw/relu
I0902 16:06:26.477222 27875 net.cpp:157] Top shape: 1 64 75 75 (360000)
I0902 16:06:26.477226 27875 net.cpp:165] Memory required for data: 60480000
I0902 16:06:26.477228 27875 layer_factory.hpp:77] Creating layer conv2
I0902 16:06:26.477233 27875 net.cpp:100] Creating Layer conv2
I0902 16:06:26.477236 27875 net.cpp:434] conv2 <- conv2/dw
I0902 16:06:26.477242 27875 net.cpp:408] conv2 -> conv2
I0902 16:06:26.477324 27875 net.cpp:150] Setting up conv2
I0902 16:06:26.477329 27875 net.cpp:157] Top shape: 1 128 75 75 (720000)
I0902 16:06:26.477332 27875 net.cpp:165] Memory required for data: 63360000
I0902 16:06:26.477336 27875 layer_factory.hpp:77] Creating layer conv2/bn
I0902 16:06:26.477339 27875 net.cpp:100] Creating Layer conv2/bn
I0902 16:06:26.477344 27875 net.cpp:434] conv2/bn <- conv2
I0902 16:06:26.477347 27875 net.cpp:395] conv2/bn -> conv2 (in-place)
I0902 16:06:26.477363 27875 net.cpp:150] Setting up conv2/bn
I0902 16:06:26.477367 27875 net.cpp:157] Top shape: 1 128 75 75 (720000)
I0902 16:06:26.477370 27875 net.cpp:165] Memory required for data: 66240000
I0902 16:06:26.477375 27875 layer_factory.hpp:77] Creating layer conv2/scale
I0902 16:06:26.477380 27875 net.cpp:100] Creating Layer conv2/scale
I0902 16:06:26.477382 27875 net.cpp:434] conv2/scale <- conv2
I0902 16:06:26.477386 27875 net.cpp:395] conv2/scale -> conv2 (in-place)
I0902 16:06:26.477393 27875 layer_factory.hpp:77] Creating layer conv2/scale
I0902 16:06:26.477417 27875 net.cpp:150] Setting up conv2/scale
I0902 16:06:26.477422 27875 net.cpp:157] Top shape: 1 128 75 75 (720000)
I0902 16:06:26.477425 27875 net.cpp:165] Memory required for data: 69120000
I0902 16:06:26.477429 27875 layer_factory.hpp:77] Creating layer conv2/relu
I0902 16:06:26.477433 27875 net.cpp:100] Creating Layer conv2/relu
I0902 16:06:26.477437 27875 net.cpp:434] conv2/relu <- conv2
I0902 16:06:26.477440 27875 net.cpp:395] conv2/relu -> conv2 (in-place)
I0902 16:06:26.477445 27875 net.cpp:150] Setting up conv2/relu
I0902 16:06:26.477449 27875 net.cpp:157] Top shape: 1 128 75 75 (720000)
I0902 16:06:26.477452 27875 net.cpp:165] Memory required for data: 72000000
I0902 16:06:26.477454 27875 layer_factory.hpp:77] Creating layer conv3/dw
I0902 16:06:26.477459 27875 net.cpp:100] Creating Layer conv3/dw
I0902 16:06:26.477463 27875 net.cpp:434] conv3/dw <- conv2
I0902 16:06:26.477468 27875 net.cpp:408] conv3/dw -> conv3/dw
I0902 16:06:26.477847 27875 net.cpp:150] Setting up conv3/dw
I0902 16:06:26.477859 27875 net.cpp:157] Top shape: 1 128 75 75 (720000)
I0902 16:06:26.477864 27875 net.cpp:165] Memory required for data: 74880000
I0902 16:06:26.477867 27875 layer_factory.hpp:77] Creating layer conv3/dw/bn
I0902 16:06:26.477874 27875 net.cpp:100] Creating Layer conv3/dw/bn
I0902 16:06:26.477876 27875 net.cpp:434] conv3/dw/bn <- conv3/dw
I0902 16:06:26.477882 27875 net.cpp:395] conv3/dw/bn -> conv3/dw (in-place)
I0902 16:06:26.477896 27875 net.cpp:150] Setting up conv3/dw/bn
I0902 16:06:26.477902 27875 net.cpp:157] Top shape: 1 128 75 75 (720000)
I0902 16:06:26.477905 27875 net.cpp:165] Memory required for data: 77760000
I0902 16:06:26.477916 27875 layer_factory.hpp:77] Creating layer conv3/dw/scale
I0902 16:06:26.477922 27875 net.cpp:100] Creating Layer conv3/dw/scale
I0902 16:06:26.477926 27875 net.cpp:434] conv3/dw/scale <- conv3/dw
I0902 16:06:26.477929 27875 net.cpp:395] conv3/dw/scale -> conv3/dw (in-place)
I0902 16:06:26.477937 27875 layer_factory.hpp:77] Creating layer conv3/dw/scale
I0902 16:06:26.477963 27875 net.cpp:150] Setting up conv3/dw/scale
I0902 16:06:26.477968 27875 net.cpp:157] Top shape: 1 128 75 75 (720000)
I0902 16:06:26.477972 27875 net.cpp:165] Memory required for data: 80640000
I0902 16:06:26.477977 27875 layer_factory.hpp:77] Creating layer conv3/dw/relu
I0902 16:06:26.477980 27875 net.cpp:100] Creating Layer conv3/dw/relu
I0902 16:06:26.477983 27875 net.cpp:434] conv3/dw/relu <- conv3/dw
I0902 16:06:26.477986 27875 net.cpp:395] conv3/dw/relu -> conv3/dw (in-place)
I0902 16:06:26.477991 27875 net.cpp:150] Setting up conv3/dw/relu
I0902 16:06:26.477995 27875 net.cpp:157] Top shape: 1 128 75 75 (720000)
I0902 16:06:26.477998 27875 net.cpp:165] Memory required for data: 83520000
I0902 16:06:26.478000 27875 layer_factory.hpp:77] Creating layer conv3
I0902 16:06:26.478008 27875 net.cpp:100] Creating Layer conv3
I0902 16:06:26.478010 27875 net.cpp:434] conv3 <- conv3/dw
I0902 16:06:26.478015 27875 net.cpp:408] conv3 -> conv3
I0902 16:06:26.478168 27875 net.cpp:150] Setting up conv3
I0902 16:06:26.478173 27875 net.cpp:157] Top shape: 1 128 75 75 (720000)
I0902 16:06:26.478176 27875 net.cpp:165] Memory required for data: 86400000
I0902 16:06:26.478180 27875 layer_factory.hpp:77] Creating layer conv3/bn
I0902 16:06:26.478185 27875 net.cpp:100] Creating Layer conv3/bn
I0902 16:06:26.478188 27875 net.cpp:434] conv3/bn <- conv3
I0902 16:06:26.478193 27875 net.cpp:395] conv3/bn -> conv3 (in-place)
I0902 16:06:26.478207 27875 net.cpp:150] Setting up conv3/bn
I0902 16:06:26.478211 27875 net.cpp:157] Top shape: 1 128 75 75 (720000)
I0902 16:06:26.478214 27875 net.cpp:165] Memory required for data: 89280000
I0902 16:06:26.478219 27875 layer_factory.hpp:77] Creating layer conv3/scale
I0902 16:06:26.478224 27875 net.cpp:100] Creating Layer conv3/scale
I0902 16:06:26.478226 27875 net.cpp:434] conv3/scale <- conv3
I0902 16:06:26.478232 27875 net.cpp:395] conv3/scale -> conv3 (in-place)
I0902 16:06:26.478240 27875 layer_factory.hpp:77] Creating layer conv3/scale
I0902 16:06:26.478264 27875 net.cpp:150] Setting up conv3/scale
I0902 16:06:26.478268 27875 net.cpp:157] Top shape: 1 128 75 75 (720000)
I0902 16:06:26.478271 27875 net.cpp:165] Memory required for data: 92160000
I0902 16:06:26.478276 27875 layer_factory.hpp:77] Creating layer conv3/relu
I0902 16:06:26.478279 27875 net.cpp:100] Creating Layer conv3/relu
I0902 16:06:26.478282 27875 net.cpp:434] conv3/relu <- conv3
I0902 16:06:26.478287 27875 net.cpp:395] conv3/relu -> conv3 (in-place)
I0902 16:06:26.478291 27875 net.cpp:150] Setting up conv3/relu
I0902 16:06:26.478296 27875 net.cpp:157] Top shape: 1 128 75 75 (720000)
I0902 16:06:26.478298 27875 net.cpp:165] Memory required for data: 95040000
I0902 16:06:26.478302 27875 layer_factory.hpp:77] Creating layer conv4/dw
I0902 16:06:26.478305 27875 net.cpp:100] Creating Layer conv4/dw
I0902 16:06:26.478308 27875 net.cpp:434] conv4/dw <- conv3
I0902 16:06:26.478313 27875 net.cpp:408] conv4/dw -> conv4/dw
I0902 16:06:26.478336 27875 net.cpp:150] Setting up conv4/dw
I0902 16:06:26.478341 27875 net.cpp:157] Top shape: 1 128 38 38 (184832)
I0902 16:06:26.478343 27875 net.cpp:165] Memory required for data: 95779328
I0902 16:06:26.478348 27875 layer_factory.hpp:77] Creating layer conv4/dw/bn
I0902 16:06:26.478353 27875 net.cpp:100] Creating Layer conv4/dw/bn
I0902 16:06:26.478355 27875 net.cpp:434] conv4/dw/bn <- conv4/dw
I0902 16:06:26.478359 27875 net.cpp:395] conv4/dw/bn -> conv4/dw (in-place)
I0902 16:06:26.478370 27875 net.cpp:150] Setting up conv4/dw/bn
I0902 16:06:26.478375 27875 net.cpp:157] Top shape: 1 128 38 38 (184832)
I0902 16:06:26.478379 27875 net.cpp:165] Memory required for data: 96518656
I0902 16:06:26.478385 27875 layer_factory.hpp:77] Creating layer conv4/dw/scale
I0902 16:06:26.478392 27875 net.cpp:100] Creating Layer conv4/dw/scale
I0902 16:06:26.478395 27875 net.cpp:434] conv4/dw/scale <- conv4/dw
I0902 16:06:26.478399 27875 net.cpp:395] conv4/dw/scale -> conv4/dw (in-place)
I0902 16:06:26.478406 27875 layer_factory.hpp:77] Creating layer conv4/dw/scale
I0902 16:06:26.478417 27875 net.cpp:150] Setting up conv4/dw/scale
I0902 16:06:26.478421 27875 net.cpp:157] Top shape: 1 128 38 38 (184832)
I0902 16:06:26.478425 27875 net.cpp:165] Memory required for data: 97257984
I0902 16:06:26.478428 27875 layer_factory.hpp:77] Creating layer conv4/dw/relu
I0902 16:06:26.478432 27875 net.cpp:100] Creating Layer conv4/dw/relu
I0902 16:06:26.478435 27875 net.cpp:434] conv4/dw/relu <- conv4/dw
I0902 16:06:26.478440 27875 net.cpp:395] conv4/dw/relu -> conv4/dw (in-place)
I0902 16:06:26.478444 27875 net.cpp:150] Setting up conv4/dw/relu
I0902 16:06:26.478447 27875 net.cpp:157] Top shape: 1 128 38 38 (184832)
I0902 16:06:26.478451 27875 net.cpp:165] Memory required for data: 97997312
I0902 16:06:26.478453 27875 layer_factory.hpp:77] Creating layer conv4
I0902 16:06:26.478458 27875 net.cpp:100] Creating Layer conv4
I0902 16:06:26.478461 27875 net.cpp:434] conv4 <- conv4/dw
I0902 16:06:26.478466 27875 net.cpp:408] conv4 -> conv4
I0902 16:06:26.478772 27875 net.cpp:150] Setting up conv4
I0902 16:06:26.478778 27875 net.cpp:157] Top shape: 1 256 38 38 (369664)
I0902 16:06:26.478780 27875 net.cpp:165] Memory required for data: 99475968
I0902 16:06:26.478785 27875 layer_factory.hpp:77] Creating layer conv4/bn
I0902 16:06:26.478790 27875 net.cpp:100] Creating Layer conv4/bn
I0902 16:06:26.478793 27875 net.cpp:434] conv4/bn <- conv4
I0902 16:06:26.478797 27875 net.cpp:395] conv4/bn -> conv4 (in-place)
I0902 16:06:26.478808 27875 net.cpp:150] Setting up conv4/bn
I0902 16:06:26.478812 27875 net.cpp:157] Top shape: 1 256 38 38 (369664)
I0902 16:06:26.478816 27875 net.cpp:165] Memory required for data: 100954624
I0902 16:06:26.478819 27875 layer_factory.hpp:77] Creating layer conv4/scale
I0902 16:06:26.478826 27875 net.cpp:100] Creating Layer conv4/scale
I0902 16:06:26.478828 27875 net.cpp:434] conv4/scale <- conv4
I0902 16:06:26.478832 27875 net.cpp:395] conv4/scale -> conv4 (in-place)
I0902 16:06:26.478839 27875 layer_factory.hpp:77] Creating layer conv4/scale
I0902 16:06:26.478852 27875 net.cpp:150] Setting up conv4/scale
I0902 16:06:26.478857 27875 net.cpp:157] Top shape: 1 256 38 38 (369664)
I0902 16:06:26.478859 27875 net.cpp:165] Memory required for data: 102433280
I0902 16:06:26.478863 27875 layer_factory.hpp:77] Creating layer conv4/relu
I0902 16:06:26.478868 27875 net.cpp:100] Creating Layer conv4/relu
I0902 16:06:26.478869 27875 net.cpp:434] conv4/relu <- conv4
I0902 16:06:26.478874 27875 net.cpp:395] conv4/relu -> conv4 (in-place)
I0902 16:06:26.478878 27875 net.cpp:150] Setting up conv4/relu
I0902 16:06:26.478881 27875 net.cpp:157] Top shape: 1 256 38 38 (369664)
I0902 16:06:26.478884 27875 net.cpp:165] Memory required for data: 103911936
I0902 16:06:26.478888 27875 layer_factory.hpp:77] Creating layer conv5/dw
I0902 16:06:26.478891 27875 net.cpp:100] Creating Layer conv5/dw
I0902 16:06:26.478894 27875 net.cpp:434] conv5/dw <- conv4
I0902 16:06:26.478899 27875 net.cpp:408] conv5/dw -> conv5/dw
I0902 16:06:26.478929 27875 net.cpp:150] Setting up conv5/dw
I0902 16:06:26.478935 27875 net.cpp:157] Top shape: 1 256 38 38 (369664)
I0902 16:06:26.478937 27875 net.cpp:165] Memory required for data: 105390592
I0902 16:06:26.478940 27875 layer_factory.hpp:77] Creating layer conv5/dw/bn
I0902 16:06:26.478945 27875 net.cpp:100] Creating Layer conv5/dw/bn
I0902 16:06:26.478947 27875 net.cpp:434] conv5/dw/bn <- conv5/dw
I0902 16:06:26.478951 27875 net.cpp:395] conv5/dw/bn -> conv5/dw (in-place)
I0902 16:06:26.478961 27875 net.cpp:150] Setting up conv5/dw/bn
I0902 16:06:26.478965 27875 net.cpp:157] Top shape: 1 256 38 38 (369664)
I0902 16:06:26.478968 27875 net.cpp:165] Memory required for data: 106869248
I0902 16:06:26.478972 27875 layer_factory.hpp:77] Creating layer conv5/dw/scale
I0902 16:06:26.478978 27875 net.cpp:100] Creating Layer conv5/dw/scale
I0902 16:06:26.478981 27875 net.cpp:434] conv5/dw/scale <- conv5/dw
I0902 16:06:26.478986 27875 net.cpp:395] conv5/dw/scale -> conv5/dw (in-place)
I0902 16:06:26.478993 27875 layer_factory.hpp:77] Creating layer conv5/dw/scale
I0902 16:06:26.479003 27875 net.cpp:150] Setting up conv5/dw/scale
I0902 16:06:26.479008 27875 net.cpp:157] Top shape: 1 256 38 38 (369664)
I0902 16:06:26.479012 27875 net.cpp:165] Memory required for data: 108347904
I0902 16:06:26.479015 27875 layer_factory.hpp:77] Creating layer conv5/dw/relu
I0902 16:06:26.479019 27875 net.cpp:100] Creating Layer conv5/dw/relu
I0902 16:06:26.479022 27875 net.cpp:434] conv5/dw/relu <- conv5/dw
I0902 16:06:26.479027 27875 net.cpp:395] conv5/dw/relu -> conv5/dw (in-place)
I0902 16:06:26.479030 27875 net.cpp:150] Setting up conv5/dw/relu
I0902 16:06:26.479033 27875 net.cpp:157] Top shape: 1 256 38 38 (369664)
I0902 16:06:26.479037 27875 net.cpp:165] Memory required for data: 109826560
I0902 16:06:26.479039 27875 layer_factory.hpp:77] Creating layer conv5
I0902 16:06:26.479044 27875 net.cpp:100] Creating Layer conv5
I0902 16:06:26.479048 27875 net.cpp:434] conv5 <- conv5/dw
I0902 16:06:26.479051 27875 net.cpp:408] conv5 -> conv5
I0902 16:06:26.479914 27875 net.cpp:150] Setting up conv5
I0902 16:06:26.479925 27875 net.cpp:157] Top shape: 1 256 38 38 (369664)
I0902 16:06:26.479929 27875 net.cpp:165] Memory required for data: 111305216
I0902 16:06:26.479934 27875 layer_factory.hpp:77] Creating layer conv5/bn
I0902 16:06:26.479940 27875 net.cpp:100] Creating Layer conv5/bn
I0902 16:06:26.479944 27875 net.cpp:434] conv5/bn <- conv5
I0902 16:06:26.479949 27875 net.cpp:395] conv5/bn -> conv5 (in-place)
I0902 16:06:26.479961 27875 net.cpp:150] Setting up conv5/bn
I0902 16:06:26.479966 27875 net.cpp:157] Top shape: 1 256 38 38 (369664)
I0902 16:06:26.479969 27875 net.cpp:165] Memory required for data: 112783872
I0902 16:06:26.479974 27875 layer_factory.hpp:77] Creating layer conv5/scale
I0902 16:06:26.479979 27875 net.cpp:100] Creating Layer conv5/scale
I0902 16:06:26.479982 27875 net.cpp:434] conv5/scale <- conv5
I0902 16:06:26.479987 27875 net.cpp:395] conv5/scale -> conv5 (in-place)
I0902 16:06:26.479995 27875 layer_factory.hpp:77] Creating layer conv5/scale
I0902 16:06:26.480008 27875 net.cpp:150] Setting up conv5/scale
I0902 16:06:26.480013 27875 net.cpp:157] Top shape: 1 256 38 38 (369664)
I0902 16:06:26.480016 27875 net.cpp:165] Memory required for data: 114262528
I0902 16:06:26.480028 27875 layer_factory.hpp:77] Creating layer conv5/relu
I0902 16:06:26.480032 27875 net.cpp:100] Creating Layer conv5/relu
I0902 16:06:26.480036 27875 net.cpp:434] conv5/relu <- conv5
I0902 16:06:26.480041 27875 net.cpp:395] conv5/relu -> conv5 (in-place)
I0902 16:06:26.480046 27875 net.cpp:150] Setting up conv5/relu
I0902 16:06:26.480049 27875 net.cpp:157] Top shape: 1 256 38 38 (369664)
I0902 16:06:26.480052 27875 net.cpp:165] Memory required for data: 115741184
I0902 16:06:26.480055 27875 layer_factory.hpp:77] Creating layer conv6/dw
I0902 16:06:26.480060 27875 net.cpp:100] Creating Layer conv6/dw
I0902 16:06:26.480063 27875 net.cpp:434] conv6/dw <- conv5
I0902 16:06:26.480068 27875 net.cpp:408] conv6/dw -> conv6/dw
I0902 16:06:26.480099 27875 net.cpp:150] Setting up conv6/dw
I0902 16:06:26.480105 27875 net.cpp:157] Top shape: 1 256 19 19 (92416)
I0902 16:06:26.480108 27875 net.cpp:165] Memory required for data: 116110848
I0902 16:06:26.480111 27875 layer_factory.hpp:77] Creating layer conv6/dw/bn
I0902 16:06:26.480115 27875 net.cpp:100] Creating Layer conv6/dw/bn
I0902 16:06:26.480118 27875 net.cpp:434] conv6/dw/bn <- conv6/dw
I0902 16:06:26.480123 27875 net.cpp:395] conv6/dw/bn -> conv6/dw (in-place)
I0902 16:06:26.480131 27875 net.cpp:150] Setting up conv6/dw/bn
I0902 16:06:26.480136 27875 net.cpp:157] Top shape: 1 256 19 19 (92416)
I0902 16:06:26.480139 27875 net.cpp:165] Memory required for data: 116480512
I0902 16:06:26.480144 27875 layer_factory.hpp:77] Creating layer conv6/dw/scale
I0902 16:06:26.480151 27875 net.cpp:100] Creating Layer conv6/dw/scale
I0902 16:06:26.480155 27875 net.cpp:434] conv6/dw/scale <- conv6/dw
I0902 16:06:26.480159 27875 net.cpp:395] conv6/dw/scale -> conv6/dw (in-place)
I0902 16:06:26.480165 27875 layer_factory.hpp:77] Creating layer conv6/dw/scale
I0902 16:06:26.480175 27875 net.cpp:150] Setting up conv6/dw/scale
I0902 16:06:26.480181 27875 net.cpp:157] Top shape: 1 256 19 19 (92416)
I0902 16:06:26.480185 27875 net.cpp:165] Memory required for data: 116850176
I0902 16:06:26.480188 27875 layer_factory.hpp:77] Creating layer conv6/dw/relu
I0902 16:06:26.480192 27875 net.cpp:100] Creating Layer conv6/dw/relu
I0902 16:06:26.480195 27875 net.cpp:434] conv6/dw/relu <- conv6/dw
I0902 16:06:26.480198 27875 net.cpp:395] conv6/dw/relu -> conv6/dw (in-place)
I0902 16:06:26.480202 27875 net.cpp:150] Setting up conv6/dw/relu
I0902 16:06:26.480206 27875 net.cpp:157] Top shape: 1 256 19 19 (92416)
I0902 16:06:26.480209 27875 net.cpp:165] Memory required for data: 117219840
I0902 16:06:26.480212 27875 layer_factory.hpp:77] Creating layer conv6
I0902 16:06:26.480218 27875 net.cpp:100] Creating Layer conv6
I0902 16:06:26.480221 27875 net.cpp:434] conv6 <- conv6/dw
I0902 16:06:26.480226 27875 net.cpp:408] conv6 -> conv6
I0902 16:06:26.481356 27875 net.cpp:150] Setting up conv6
I0902 16:06:26.481362 27875 net.cpp:157] Top shape: 1 512 19 19 (184832)
I0902 16:06:26.481365 27875 net.cpp:165] Memory required for data: 117959168
I0902 16:06:26.481369 27875 layer_factory.hpp:77] Creating layer conv6/bn
I0902 16:06:26.481374 27875 net.cpp:100] Creating Layer conv6/bn
I0902 16:06:26.481377 27875 net.cpp:434] conv6/bn <- conv6
I0902 16:06:26.481380 27875 net.cpp:395] conv6/bn -> conv6 (in-place)
I0902 16:06:26.481392 27875 net.cpp:150] Setting up conv6/bn
I0902 16:06:26.481396 27875 net.cpp:157] Top shape: 1 512 19 19 (184832)
I0902 16:06:26.481400 27875 net.cpp:165] Memory required for data: 118698496
I0902 16:06:26.481405 27875 layer_factory.hpp:77] Creating layer conv6/scale
I0902 16:06:26.481410 27875 net.cpp:100] Creating Layer conv6/scale
I0902 16:06:26.481412 27875 net.cpp:434] conv6/scale <- conv6
I0902 16:06:26.481416 27875 net.cpp:395] conv6/scale -> conv6 (in-place)
I0902 16:06:26.481424 27875 layer_factory.hpp:77] Creating layer conv6/scale
I0902 16:06:26.481436 27875 net.cpp:150] Setting up conv6/scale
I0902 16:06:26.481441 27875 net.cpp:157] Top shape: 1 512 19 19 (184832)
I0902 16:06:26.481443 27875 net.cpp:165] Memory required for data: 119437824
I0902 16:06:26.481447 27875 layer_factory.hpp:77] Creating layer conv6/relu
I0902 16:06:26.481451 27875 net.cpp:100] Creating Layer conv6/relu
I0902 16:06:26.481454 27875 net.cpp:434] conv6/relu <- conv6
I0902 16:06:26.481457 27875 net.cpp:395] conv6/relu -> conv6 (in-place)
I0902 16:06:26.481462 27875 net.cpp:150] Setting up conv6/relu
I0902 16:06:26.481465 27875 net.cpp:157] Top shape: 1 512 19 19 (184832)
I0902 16:06:26.481468 27875 net.cpp:165] Memory required for data: 120177152
I0902 16:06:26.481472 27875 layer_factory.hpp:77] Creating layer conv7/dw
I0902 16:06:26.481551 27875 net.cpp:100] Creating Layer conv7/dw
I0902 16:06:26.481555 27875 net.cpp:434] conv7/dw <- conv6
I0902 16:06:26.481561 27875 net.cpp:408] conv7/dw -> conv7/dw
I0902 16:06:26.481613 27875 net.cpp:150] Setting up conv7/dw
I0902 16:06:26.481618 27875 net.cpp:157] Top shape: 1 512 19 19 (184832)
I0902 16:06:26.481621 27875 net.cpp:165] Memory required for data: 120916480
I0902 16:06:26.481626 27875 layer_factory.hpp:77] Creating layer conv7/dw/bn
I0902 16:06:26.481631 27875 net.cpp:100] Creating Layer conv7/dw/bn
I0902 16:06:26.481633 27875 net.cpp:434] conv7/dw/bn <- conv7/dw
I0902 16:06:26.481637 27875 net.cpp:395] conv7/dw/bn -> conv7/dw (in-place)
I0902 16:06:26.481648 27875 net.cpp:150] Setting up conv7/dw/bn
I0902 16:06:26.481652 27875 net.cpp:157] Top shape: 1 512 19 19 (184832)
I0902 16:06:26.481655 27875 net.cpp:165] Memory required for data: 121655808
I0902 16:06:26.481660 27875 layer_factory.hpp:77] Creating layer conv7/dw/scale
I0902 16:06:26.481669 27875 net.cpp:100] Creating Layer conv7/dw/scale
I0902 16:06:26.481673 27875 net.cpp:434] conv7/dw/scale <- conv7/dw
I0902 16:06:26.481676 27875 net.cpp:395] conv7/dw/scale -> conv7/dw (in-place)
I0902 16:06:26.481684 27875 layer_factory.hpp:77] Creating layer conv7/dw/scale
I0902 16:06:26.481696 27875 net.cpp:150] Setting up conv7/dw/scale
I0902 16:06:26.481701 27875 net.cpp:157] Top shape: 1 512 19 19 (184832)
I0902 16:06:26.481704 27875 net.cpp:165] Memory required for data: 122395136
I0902 16:06:26.481709 27875 layer_factory.hpp:77] Creating layer conv7/dw/relu
I0902 16:06:26.481712 27875 net.cpp:100] Creating Layer conv7/dw/relu
I0902 16:06:26.481715 27875 net.cpp:434] conv7/dw/relu <- conv7/dw
I0902 16:06:26.481719 27875 net.cpp:395] conv7/dw/relu -> conv7/dw (in-place)
I0902 16:06:26.481724 27875 net.cpp:150] Setting up conv7/dw/relu
I0902 16:06:26.481727 27875 net.cpp:157] Top shape: 1 512 19 19 (184832)
I0902 16:06:26.481730 27875 net.cpp:165] Memory required for data: 123134464
I0902 16:06:26.481734 27875 layer_factory.hpp:77] Creating layer conv7
I0902 16:06:26.481739 27875 net.cpp:100] Creating Layer conv7
I0902 16:06:26.481741 27875 net.cpp:434] conv7 <- conv7/dw
I0902 16:06:26.481746 27875 net.cpp:408] conv7 -> conv7
I0902 16:06:26.484019 27875 net.cpp:150] Setting up conv7
I0902 16:06:26.484025 27875 net.cpp:157] Top shape: 1 512 19 19 (184832)
I0902 16:06:26.484027 27875 net.cpp:165] Memory required for data: 123873792
I0902 16:06:26.484031 27875 layer_factory.hpp:77] Creating layer conv7/bn
I0902 16:06:26.484035 27875 net.cpp:100] Creating Layer conv7/bn
I0902 16:06:26.484038 27875 net.cpp:434] conv7/bn <- conv7
I0902 16:06:26.484043 27875 net.cpp:395] conv7/bn -> conv7 (in-place)
I0902 16:06:26.484055 27875 net.cpp:150] Setting up conv7/bn
I0902 16:06:26.484058 27875 net.cpp:157] Top shape: 1 512 19 19 (184832)
I0902 16:06:26.484061 27875 net.cpp:165] Memory required for data: 124613120
I0902 16:06:26.484066 27875 layer_factory.hpp:77] Creating layer conv7/scale
I0902 16:06:26.484072 27875 net.cpp:100] Creating Layer conv7/scale
I0902 16:06:26.484076 27875 net.cpp:434] conv7/scale <- conv7
I0902 16:06:26.484081 27875 net.cpp:395] conv7/scale -> conv7 (in-place)
I0902 16:06:26.484088 27875 layer_factory.hpp:77] Creating layer conv7/scale
I0902 16:06:26.484102 27875 net.cpp:150] Setting up conv7/scale
I0902 16:06:26.484105 27875 net.cpp:157] Top shape: 1 512 19 19 (184832)
I0902 16:06:26.484108 27875 net.cpp:165] Memory required for data: 125352448
I0902 16:06:26.484112 27875 layer_factory.hpp:77] Creating layer conv7/relu
I0902 16:06:26.484117 27875 net.cpp:100] Creating Layer conv7/relu
I0902 16:06:26.484119 27875 net.cpp:434] conv7/relu <- conv7
I0902 16:06:26.484123 27875 net.cpp:395] conv7/relu -> conv7 (in-place)
I0902 16:06:26.484127 27875 net.cpp:150] Setting up conv7/relu
I0902 16:06:26.484130 27875 net.cpp:157] Top shape: 1 512 19 19 (184832)
I0902 16:06:26.484133 27875 net.cpp:165] Memory required for data: 126091776
I0902 16:06:26.484136 27875 layer_factory.hpp:77] Creating layer conv8/dw
I0902 16:06:26.484141 27875 net.cpp:100] Creating Layer conv8/dw
I0902 16:06:26.484144 27875 net.cpp:434] conv8/dw <- conv7
I0902 16:06:26.484149 27875 net.cpp:408] conv8/dw -> conv8/dw
I0902 16:06:26.484200 27875 net.cpp:150] Setting up conv8/dw
I0902 16:06:26.484203 27875 net.cpp:157] Top shape: 1 512 19 19 (184832)
I0902 16:06:26.484206 27875 net.cpp:165] Memory required for data: 126831104
I0902 16:06:26.484210 27875 layer_factory.hpp:77] Creating layer conv8/dw/bn
I0902 16:06:26.484215 27875 net.cpp:100] Creating Layer conv8/dw/bn
I0902 16:06:26.484217 27875 net.cpp:434] conv8/dw/bn <- conv8/dw
I0902 16:06:26.484220 27875 net.cpp:395] conv8/dw/bn -> conv8/dw (in-place)
I0902 16:06:26.484230 27875 net.cpp:150] Setting up conv8/dw/bn
I0902 16:06:26.484234 27875 net.cpp:157] Top shape: 1 512 19 19 (184832)
I0902 16:06:26.484237 27875 net.cpp:165] Memory required for data: 127570432
I0902 16:06:26.484242 27875 layer_factory.hpp:77] Creating layer conv8/dw/scale
I0902 16:06:26.484253 27875 net.cpp:100] Creating Layer conv8/dw/scale
I0902 16:06:26.484259 27875 net.cpp:434] conv8/dw/scale <- conv8/dw
I0902 16:06:26.484263 27875 net.cpp:395] conv8/dw/scale -> conv8/dw (in-place)
I0902 16:06:26.484272 27875 layer_factory.hpp:77] Creating layer conv8/dw/scale
I0902 16:06:26.484284 27875 net.cpp:150] Setting up conv8/dw/scale
I0902 16:06:26.484289 27875 net.cpp:157] Top shape: 1 512 19 19 (184832)
I0902 16:06:26.484292 27875 net.cpp:165] Memory required for data: 128309760
I0902 16:06:26.484297 27875 layer_factory.hpp:77] Creating layer conv8/dw/relu
I0902 16:06:26.484300 27875 net.cpp:100] Creating Layer conv8/dw/relu
I0902 16:06:26.484303 27875 net.cpp:434] conv8/dw/relu <- conv8/dw
I0902 16:06:26.484306 27875 net.cpp:395] conv8/dw/relu -> conv8/dw (in-place)
I0902 16:06:26.484310 27875 net.cpp:150] Setting up conv8/dw/relu
I0902 16:06:26.484314 27875 net.cpp:157] Top shape: 1 512 19 19 (184832)
I0902 16:06:26.484318 27875 net.cpp:165] Memory required for data: 129049088
I0902 16:06:26.484320 27875 layer_factory.hpp:77] Creating layer conv8
I0902 16:06:26.484325 27875 net.cpp:100] Creating Layer conv8
I0902 16:06:26.484328 27875 net.cpp:434] conv8 <- conv8/dw
I0902 16:06:26.484333 27875 net.cpp:408] conv8 -> conv8
I0902 16:06:26.486811 27875 net.cpp:150] Setting up conv8
I0902 16:06:26.486821 27875 net.cpp:157] Top shape: 1 512 19 19 (184832)
I0902 16:06:26.486825 27875 net.cpp:165] Memory required for data: 129788416
I0902 16:06:26.486830 27875 layer_factory.hpp:77] Creating layer conv8/bn
I0902 16:06:26.486835 27875 net.cpp:100] Creating Layer conv8/bn
I0902 16:06:26.486840 27875 net.cpp:434] conv8/bn <- conv8
I0902 16:06:26.486843 27875 net.cpp:395] conv8/bn -> conv8 (in-place)
I0902 16:06:26.486855 27875 net.cpp:150] Setting up conv8/bn
I0902 16:06:26.486860 27875 net.cpp:157] Top shape: 1 512 19 19 (184832)
I0902 16:06:26.486863 27875 net.cpp:165] Memory required for data: 130527744
I0902 16:06:26.486868 27875 layer_factory.hpp:77] Creating layer conv8/scale
I0902 16:06:26.486873 27875 net.cpp:100] Creating Layer conv8/scale
I0902 16:06:26.486876 27875 net.cpp:434] conv8/scale <- conv8
I0902 16:06:26.486881 27875 net.cpp:395] conv8/scale -> conv8 (in-place)
I0902 16:06:26.486889 27875 layer_factory.hpp:77] Creating layer conv8/scale
I0902 16:06:26.486902 27875 net.cpp:150] Setting up conv8/scale
I0902 16:06:26.486907 27875 net.cpp:157] Top shape: 1 512 19 19 (184832)
I0902 16:06:26.486910 27875 net.cpp:165] Memory required for data: 131267072
I0902 16:06:26.486914 27875 layer_factory.hpp:77] Creating layer conv8/relu
I0902 16:06:26.486918 27875 net.cpp:100] Creating Layer conv8/relu
I0902 16:06:26.486922 27875 net.cpp:434] conv8/relu <- conv8
I0902 16:06:26.486927 27875 net.cpp:395] conv8/relu -> conv8 (in-place)
I0902 16:06:26.486930 27875 net.cpp:150] Setting up conv8/relu
I0902 16:06:26.486934 27875 net.cpp:157] Top shape: 1 512 19 19 (184832)
I0902 16:06:26.486937 27875 net.cpp:165] Memory required for data: 132006400
I0902 16:06:26.486940 27875 layer_factory.hpp:77] Creating layer conv9/dw
I0902 16:06:26.486945 27875 net.cpp:100] Creating Layer conv9/dw
I0902 16:06:26.486948 27875 net.cpp:434] conv9/dw <- conv8
I0902 16:06:26.486953 27875 net.cpp:408] conv9/dw -> conv9/dw
I0902 16:06:26.487002 27875 net.cpp:150] Setting up conv9/dw
I0902 16:06:26.487008 27875 net.cpp:157] Top shape: 1 512 19 19 (184832)
I0902 16:06:26.487011 27875 net.cpp:165] Memory required for data: 132745728
I0902 16:06:26.487015 27875 layer_factory.hpp:77] Creating layer conv9/dw/bn
I0902 16:06:26.487020 27875 net.cpp:100] Creating Layer conv9/dw/bn
I0902 16:06:26.487022 27875 net.cpp:434] conv9/dw/bn <- conv9/dw
I0902 16:06:26.487026 27875 net.cpp:395] conv9/dw/bn -> conv9/dw (in-place)
I0902 16:06:26.487036 27875 net.cpp:150] Setting up conv9/dw/bn
I0902 16:06:26.487040 27875 net.cpp:157] Top shape: 1 512 19 19 (184832)
I0902 16:06:26.487042 27875 net.cpp:165] Memory required for data: 133485056
I0902 16:06:26.487048 27875 layer_factory.hpp:77] Creating layer conv9/dw/scale
I0902 16:06:26.487053 27875 net.cpp:100] Creating Layer conv9/dw/scale
I0902 16:06:26.487058 27875 net.cpp:434] conv9/dw/scale <- conv9/dw
I0902 16:06:26.487064 27875 net.cpp:395] conv9/dw/scale -> conv9/dw (in-place)
I0902 16:06:26.487072 27875 layer_factory.hpp:77] Creating layer conv9/dw/scale
I0902 16:06:26.487087 27875 net.cpp:150] Setting up conv9/dw/scale
I0902 16:06:26.487090 27875 net.cpp:157] Top shape: 1 512 19 19 (184832)
I0902 16:06:26.487093 27875 net.cpp:165] Memory required for data: 134224384
I0902 16:06:26.487098 27875 layer_factory.hpp:77] Creating layer conv9/dw/relu
I0902 16:06:26.487102 27875 net.cpp:100] Creating Layer conv9/dw/relu
I0902 16:06:26.487104 27875 net.cpp:434] conv9/dw/relu <- conv9/dw
I0902 16:06:26.487108 27875 net.cpp:395] conv9/dw/relu -> conv9/dw (in-place)
I0902 16:06:26.487112 27875 net.cpp:150] Setting up conv9/dw/relu
I0902 16:06:26.487116 27875 net.cpp:157] Top shape: 1 512 19 19 (184832)
I0902 16:06:26.487118 27875 net.cpp:165] Memory required for data: 134963712
I0902 16:06:26.487121 27875 layer_factory.hpp:77] Creating layer conv9
I0902 16:06:26.487126 27875 net.cpp:100] Creating Layer conv9
I0902 16:06:26.487129 27875 net.cpp:434] conv9 <- conv9/dw
I0902 16:06:26.487134 27875 net.cpp:408] conv9 -> conv9
I0902 16:06:26.489676 27875 net.cpp:150] Setting up conv9
I0902 16:06:26.489688 27875 net.cpp:157] Top shape: 1 512 19 19 (184832)
I0902 16:06:26.489692 27875 net.cpp:165] Memory required for data: 135703040
I0902 16:06:26.489696 27875 layer_factory.hpp:77] Creating layer conv9/bn
I0902 16:06:26.489702 27875 net.cpp:100] Creating Layer conv9/bn
I0902 16:06:26.489706 27875 net.cpp:434] conv9/bn <- conv9
I0902 16:06:26.489711 27875 net.cpp:395] conv9/bn -> conv9 (in-place)
I0902 16:06:26.489723 27875 net.cpp:150] Setting up conv9/bn
I0902 16:06:26.489728 27875 net.cpp:157] Top shape: 1 512 19 19 (184832)
I0902 16:06:26.489732 27875 net.cpp:165] Memory required for data: 136442368
I0902 16:06:26.489737 27875 layer_factory.hpp:77] Creating layer conv9/scale
I0902 16:06:26.489742 27875 net.cpp:100] Creating Layer conv9/scale
I0902 16:06:26.489744 27875 net.cpp:434] conv9/scale <- conv9
I0902 16:06:26.489750 27875 net.cpp:395] conv9/scale -> conv9 (in-place)
I0902 16:06:26.489758 27875 layer_factory.hpp:77] Creating layer conv9/scale
I0902 16:06:26.489771 27875 net.cpp:150] Setting up conv9/scale
I0902 16:06:26.489776 27875 net.cpp:157] Top shape: 1 512 19 19 (184832)
I0902 16:06:26.489779 27875 net.cpp:165] Memory required for data: 137181696
I0902 16:06:26.489784 27875 layer_factory.hpp:77] Creating layer conv9/relu
I0902 16:06:26.489787 27875 net.cpp:100] Creating Layer conv9/relu
I0902 16:06:26.489790 27875 net.cpp:434] conv9/relu <- conv9
I0902 16:06:26.489796 27875 net.cpp:395] conv9/relu -> conv9 (in-place)
I0902 16:06:26.489800 27875 net.cpp:150] Setting up conv9/relu
I0902 16:06:26.489804 27875 net.cpp:157] Top shape: 1 512 19 19 (184832)
I0902 16:06:26.489807 27875 net.cpp:165] Memory required for data: 137921024
I0902 16:06:26.489810 27875 layer_factory.hpp:77] Creating layer conv10/dw
I0902 16:06:26.489815 27875 net.cpp:100] Creating Layer conv10/dw
I0902 16:06:26.489818 27875 net.cpp:434] conv10/dw <- conv9
I0902 16:06:26.489823 27875 net.cpp:408] conv10/dw -> conv10/dw
I0902 16:06:26.489873 27875 net.cpp:150] Setting up conv10/dw
I0902 16:06:26.489878 27875 net.cpp:157] Top shape: 1 512 19 19 (184832)
I0902 16:06:26.489881 27875 net.cpp:165] Memory required for data: 138660352
I0902 16:06:26.489886 27875 layer_factory.hpp:77] Creating layer conv10/dw/bn
I0902 16:06:26.489890 27875 net.cpp:100] Creating Layer conv10/dw/bn
I0902 16:06:26.489893 27875 net.cpp:434] conv10/dw/bn <- conv10/dw
I0902 16:06:26.489897 27875 net.cpp:395] conv10/dw/bn -> conv10/dw (in-place)
I0902 16:06:26.489907 27875 net.cpp:150] Setting up conv10/dw/bn
I0902 16:06:26.489912 27875 net.cpp:157] Top shape: 1 512 19 19 (184832)
I0902 16:06:26.489914 27875 net.cpp:165] Memory required for data: 139399680
I0902 16:06:26.489919 27875 layer_factory.hpp:77] Creating layer conv10/dw/scale
I0902 16:06:26.489924 27875 net.cpp:100] Creating Layer conv10/dw/scale
I0902 16:06:26.489930 27875 net.cpp:434] conv10/dw/scale <- conv10/dw
I0902 16:06:26.489934 27875 net.cpp:395] conv10/dw/scale -> conv10/dw (in-place)
I0902 16:06:26.489943 27875 layer_factory.hpp:77] Creating layer conv10/dw/scale
I0902 16:06:26.489955 27875 net.cpp:150] Setting up conv10/dw/scale
I0902 16:06:26.489959 27875 net.cpp:157] Top shape: 1 512 19 19 (184832)
I0902 16:06:26.489962 27875 net.cpp:165] Memory required for data: 140139008
I0902 16:06:26.489967 27875 layer_factory.hpp:77] Creating layer conv10/dw/relu
I0902 16:06:26.489971 27875 net.cpp:100] Creating Layer conv10/dw/relu
I0902 16:06:26.489975 27875 net.cpp:434] conv10/dw/relu <- conv10/dw
I0902 16:06:26.489979 27875 net.cpp:395] conv10/dw/relu -> conv10/dw (in-place)
I0902 16:06:26.489984 27875 net.cpp:150] Setting up conv10/dw/relu
I0902 16:06:26.489986 27875 net.cpp:157] Top shape: 1 512 19 19 (184832)
I0902 16:06:26.489989 27875 net.cpp:165] Memory required for data: 140878336
I0902 16:06:26.489992 27875 layer_factory.hpp:77] Creating layer conv10
I0902 16:06:26.489997 27875 net.cpp:100] Creating Layer conv10
I0902 16:06:26.490000 27875 net.cpp:434] conv10 <- conv10/dw
I0902 16:06:26.490006 27875 net.cpp:408] conv10 -> conv10
I0902 16:06:26.492343 27875 net.cpp:150] Setting up conv10
I0902 16:06:26.492349 27875 net.cpp:157] Top shape: 1 512 19 19 (184832)
I0902 16:06:26.492353 27875 net.cpp:165] Memory required for data: 141617664
I0902 16:06:26.492357 27875 layer_factory.hpp:77] Creating layer conv10/bn
I0902 16:06:26.492360 27875 net.cpp:100] Creating Layer conv10/bn
I0902 16:06:26.492364 27875 net.cpp:434] conv10/bn <- conv10
I0902 16:06:26.492369 27875 net.cpp:395] conv10/bn -> conv10 (in-place)
I0902 16:06:26.492380 27875 net.cpp:150] Setting up conv10/bn
I0902 16:06:26.492386 27875 net.cpp:157] Top shape: 1 512 19 19 (184832)
I0902 16:06:26.492389 27875 net.cpp:165] Memory required for data: 142356992
I0902 16:06:26.492394 27875 layer_factory.hpp:77] Creating layer conv10/scale
I0902 16:06:26.492398 27875 net.cpp:100] Creating Layer conv10/scale
I0902 16:06:26.492401 27875 net.cpp:434] conv10/scale <- conv10
I0902 16:06:26.492406 27875 net.cpp:395] conv10/scale -> conv10 (in-place)
I0902 16:06:26.492414 27875 layer_factory.hpp:77] Creating layer conv10/scale
I0902 16:06:26.492427 27875 net.cpp:150] Setting up conv10/scale
I0902 16:06:26.492431 27875 net.cpp:157] Top shape: 1 512 19 19 (184832)
I0902 16:06:26.492434 27875 net.cpp:165] Memory required for data: 143096320
I0902 16:06:26.492439 27875 layer_factory.hpp:77] Creating layer conv10/relu
I0902 16:06:26.492444 27875 net.cpp:100] Creating Layer conv10/relu
I0902 16:06:26.492446 27875 net.cpp:434] conv10/relu <- conv10
I0902 16:06:26.492451 27875 net.cpp:395] conv10/relu -> conv10 (in-place)
I0902 16:06:26.492455 27875 net.cpp:150] Setting up conv10/relu
I0902 16:06:26.492460 27875 net.cpp:157] Top shape: 1 512 19 19 (184832)
I0902 16:06:26.492462 27875 net.cpp:165] Memory required for data: 143835648
I0902 16:06:26.492465 27875 layer_factory.hpp:77] Creating layer conv11/dw
I0902 16:06:26.492470 27875 net.cpp:100] Creating Layer conv11/dw
I0902 16:06:26.492473 27875 net.cpp:434] conv11/dw <- conv10
I0902 16:06:26.492477 27875 net.cpp:408] conv11/dw -> conv11/dw
I0902 16:06:26.492530 27875 net.cpp:150] Setting up conv11/dw
I0902 16:06:26.492535 27875 net.cpp:157] Top shape: 1 512 19 19 (184832)
I0902 16:06:26.492538 27875 net.cpp:165] Memory required for data: 144574976
I0902 16:06:26.492542 27875 layer_factory.hpp:77] Creating layer conv11/dw/bn
I0902 16:06:26.492547 27875 net.cpp:100] Creating Layer conv11/dw/bn
I0902 16:06:26.492550 27875 net.cpp:434] conv11/dw/bn <- conv11/dw
I0902 16:06:26.492554 27875 net.cpp:395] conv11/dw/bn -> conv11/dw (in-place)
I0902 16:06:26.492564 27875 net.cpp:150] Setting up conv11/dw/bn
I0902 16:06:26.492568 27875 net.cpp:157] Top shape: 1 512 19 19 (184832)
I0902 16:06:26.492571 27875 net.cpp:165] Memory required for data: 145314304
I0902 16:06:26.492586 27875 layer_factory.hpp:77] Creating layer conv11/dw/scale
I0902 16:06:26.492591 27875 net.cpp:100] Creating Layer conv11/dw/scale
I0902 16:06:26.492597 27875 net.cpp:434] conv11/dw/scale <- conv11/dw
I0902 16:06:26.492602 27875 net.cpp:395] conv11/dw/scale -> conv11/dw (in-place)
I0902 16:06:26.492610 27875 layer_factory.hpp:77] Creating layer conv11/dw/scale
I0902 16:06:26.492622 27875 net.cpp:150] Setting up conv11/dw/scale
I0902 16:06:26.492627 27875 net.cpp:157] Top shape: 1 512 19 19 (184832)
I0902 16:06:26.492630 27875 net.cpp:165] Memory required for data: 146053632
I0902 16:06:26.492635 27875 layer_factory.hpp:77] Creating layer conv11/dw/relu
I0902 16:06:26.492638 27875 net.cpp:100] Creating Layer conv11/dw/relu
I0902 16:06:26.492641 27875 net.cpp:434] conv11/dw/relu <- conv11/dw
I0902 16:06:26.492645 27875 net.cpp:395] conv11/dw/relu -> conv11/dw (in-place)
I0902 16:06:26.492650 27875 net.cpp:150] Setting up conv11/dw/relu
I0902 16:06:26.492653 27875 net.cpp:157] Top shape: 1 512 19 19 (184832)
I0902 16:06:26.492656 27875 net.cpp:165] Memory required for data: 146792960
I0902 16:06:26.492660 27875 layer_factory.hpp:77] Creating layer conv11
I0902 16:06:26.492666 27875 net.cpp:100] Creating Layer conv11
I0902 16:06:26.492668 27875 net.cpp:434] conv11 <- conv11/dw
I0902 16:06:26.492673 27875 net.cpp:408] conv11 -> conv11
I0902 16:06:26.495105 27875 net.cpp:150] Setting up conv11
I0902 16:06:26.495115 27875 net.cpp:157] Top shape: 1 512 19 19 (184832)
I0902 16:06:26.495119 27875 net.cpp:165] Memory required for data: 147532288
I0902 16:06:26.495123 27875 layer_factory.hpp:77] Creating layer conv11/bn
I0902 16:06:26.495129 27875 net.cpp:100] Creating Layer conv11/bn
I0902 16:06:26.495133 27875 net.cpp:434] conv11/bn <- conv11
I0902 16:06:26.495137 27875 net.cpp:395] conv11/bn -> conv11 (in-place)
I0902 16:06:26.495149 27875 net.cpp:150] Setting up conv11/bn
I0902 16:06:26.495153 27875 net.cpp:157] Top shape: 1 512 19 19 (184832)
I0902 16:06:26.495157 27875 net.cpp:165] Memory required for data: 148271616
I0902 16:06:26.495162 27875 layer_factory.hpp:77] Creating layer conv11/scale
I0902 16:06:26.495167 27875 net.cpp:100] Creating Layer conv11/scale
I0902 16:06:26.495172 27875 net.cpp:434] conv11/scale <- conv11
I0902 16:06:26.495177 27875 net.cpp:395] conv11/scale -> conv11 (in-place)
I0902 16:06:26.495184 27875 layer_factory.hpp:77] Creating layer conv11/scale
I0902 16:06:26.495196 27875 net.cpp:150] Setting up conv11/scale
I0902 16:06:26.495201 27875 net.cpp:157] Top shape: 1 512 19 19 (184832)
I0902 16:06:26.495204 27875 net.cpp:165] Memory required for data: 149010944
I0902 16:06:26.495208 27875 layer_factory.hpp:77] Creating layer conv11/relu
I0902 16:06:26.495213 27875 net.cpp:100] Creating Layer conv11/relu
I0902 16:06:26.495215 27875 net.cpp:434] conv11/relu <- conv11
I0902 16:06:26.495219 27875 net.cpp:395] conv11/relu -> conv11 (in-place)
I0902 16:06:26.495223 27875 net.cpp:150] Setting up conv11/relu
I0902 16:06:26.495227 27875 net.cpp:157] Top shape: 1 512 19 19 (184832)
I0902 16:06:26.495230 27875 net.cpp:165] Memory required for data: 149750272
I0902 16:06:26.495234 27875 layer_factory.hpp:77] Creating layer conv11_conv11/relu_0_split
I0902 16:06:26.495239 27875 net.cpp:100] Creating Layer conv11_conv11/relu_0_split
I0902 16:06:26.495240 27875 net.cpp:434] conv11_conv11/relu_0_split <- conv11
I0902 16:06:26.495246 27875 net.cpp:408] conv11_conv11/relu_0_split -> conv11_conv11/relu_0_split_0
I0902 16:06:26.495252 27875 net.cpp:408] conv11_conv11/relu_0_split -> conv11_conv11/relu_0_split_1
I0902 16:06:26.495260 27875 net.cpp:408] conv11_conv11/relu_0_split -> conv11_conv11/relu_0_split_2
I0902 16:06:26.495266 27875 net.cpp:408] conv11_conv11/relu_0_split -> conv11_conv11/relu_0_split_3
I0902 16:06:26.495272 27875 net.cpp:150] Setting up conv11_conv11/relu_0_split
I0902 16:06:26.495276 27875 net.cpp:157] Top shape: 1 512 19 19 (184832)
I0902 16:06:26.495280 27875 net.cpp:157] Top shape: 1 512 19 19 (184832)
I0902 16:06:26.495283 27875 net.cpp:157] Top shape: 1 512 19 19 (184832)
I0902 16:06:26.495287 27875 net.cpp:157] Top shape: 1 512 19 19 (184832)
I0902 16:06:26.495290 27875 net.cpp:165] Memory required for data: 152707584
I0902 16:06:26.495296 27875 layer_factory.hpp:77] Creating layer conv12/dw
I0902 16:06:26.495304 27875 net.cpp:100] Creating Layer conv12/dw
I0902 16:06:26.495307 27875 net.cpp:434] conv12/dw <- conv11_conv11/relu_0_split_0
I0902 16:06:26.495312 27875 net.cpp:408] conv12/dw -> conv12/dw
I0902 16:06:26.495363 27875 net.cpp:150] Setting up conv12/dw
I0902 16:06:26.495368 27875 net.cpp:157] Top shape: 1 512 10 10 (51200)
I0902 16:06:26.495371 27875 net.cpp:165] Memory required for data: 152912384
I0902 16:06:26.495375 27875 layer_factory.hpp:77] Creating layer conv12/dw/bn
I0902 16:06:26.495380 27875 net.cpp:100] Creating Layer conv12/dw/bn
I0902 16:06:26.495383 27875 net.cpp:434] conv12/dw/bn <- conv12/dw
I0902 16:06:26.495388 27875 net.cpp:395] conv12/dw/bn -> conv12/dw (in-place)
I0902 16:06:26.495396 27875 net.cpp:150] Setting up conv12/dw/bn
I0902 16:06:26.495401 27875 net.cpp:157] Top shape: 1 512 10 10 (51200)
I0902 16:06:26.495404 27875 net.cpp:165] Memory required for data: 153117184
I0902 16:06:26.495409 27875 layer_factory.hpp:77] Creating layer conv12/dw/scale
I0902 16:06:26.495414 27875 net.cpp:100] Creating Layer conv12/dw/scale
I0902 16:06:26.495416 27875 net.cpp:434] conv12/dw/scale <- conv12/dw
I0902 16:06:26.495421 27875 net.cpp:395] conv12/dw/scale -> conv12/dw (in-place)
I0902 16:06:26.495429 27875 layer_factory.hpp:77] Creating layer conv12/dw/scale
I0902 16:06:26.495440 27875 net.cpp:150] Setting up conv12/dw/scale
I0902 16:06:26.495445 27875 net.cpp:157] Top shape: 1 512 10 10 (51200)
I0902 16:06:26.495448 27875 net.cpp:165] Memory required for data: 153321984
I0902 16:06:26.495452 27875 layer_factory.hpp:77] Creating layer conv12/dw/relu
I0902 16:06:26.495456 27875 net.cpp:100] Creating Layer conv12/dw/relu
I0902 16:06:26.495460 27875 net.cpp:434] conv12/dw/relu <- conv12/dw
I0902 16:06:26.495465 27875 net.cpp:395] conv12/dw/relu -> conv12/dw (in-place)
I0902 16:06:26.495468 27875 net.cpp:150] Setting up conv12/dw/relu
I0902 16:06:26.495472 27875 net.cpp:157] Top shape: 1 512 10 10 (51200)
I0902 16:06:26.495476 27875 net.cpp:165] Memory required for data: 153526784
I0902 16:06:26.495478 27875 layer_factory.hpp:77] Creating layer conv12
I0902 16:06:26.495484 27875 net.cpp:100] Creating Layer conv12
I0902 16:06:26.495487 27875 net.cpp:434] conv12 <- conv12/dw
I0902 16:06:26.495492 27875 net.cpp:408] conv12 -> conv12
I0902 16:06:26.500411 27875 net.cpp:150] Setting up conv12
I0902 16:06:26.500423 27875 net.cpp:157] Top shape: 1 1024 10 10 (102400)
I0902 16:06:26.500427 27875 net.cpp:165] Memory required for data: 153936384
I0902 16:06:26.500432 27875 layer_factory.hpp:77] Creating layer conv12/bn
I0902 16:06:26.500438 27875 net.cpp:100] Creating Layer conv12/bn
I0902 16:06:26.500442 27875 net.cpp:434] conv12/bn <- conv12
I0902 16:06:26.500447 27875 net.cpp:395] conv12/bn -> conv12 (in-place)
I0902 16:06:26.500459 27875 net.cpp:150] Setting up conv12/bn
I0902 16:06:26.500463 27875 net.cpp:157] Top shape: 1 1024 10 10 (102400)
I0902 16:06:26.500466 27875 net.cpp:165] Memory required for data: 154345984
I0902 16:06:26.500473 27875 layer_factory.hpp:77] Creating layer conv12/scale
I0902 16:06:26.500478 27875 net.cpp:100] Creating Layer conv12/scale
I0902 16:06:26.500480 27875 net.cpp:434] conv12/scale <- conv12
I0902 16:06:26.500488 27875 net.cpp:395] conv12/scale -> conv12 (in-place)
I0902 16:06:26.500499 27875 layer_factory.hpp:77] Creating layer conv12/scale
I0902 16:06:26.500511 27875 net.cpp:150] Setting up conv12/scale
I0902 16:06:26.500515 27875 net.cpp:157] Top shape: 1 1024 10 10 (102400)
I0902 16:06:26.500519 27875 net.cpp:165] Memory required for data: 154755584
I0902 16:06:26.500524 27875 layer_factory.hpp:77] Creating layer conv12/relu
I0902 16:06:26.500527 27875 net.cpp:100] Creating Layer conv12/relu
I0902 16:06:26.500530 27875 net.cpp:434] conv12/relu <- conv12
I0902 16:06:26.500535 27875 net.cpp:395] conv12/relu -> conv12 (in-place)
I0902 16:06:26.500540 27875 net.cpp:150] Setting up conv12/relu
I0902 16:06:26.500543 27875 net.cpp:157] Top shape: 1 1024 10 10 (102400)
I0902 16:06:26.500550 27875 net.cpp:165] Memory required for data: 155165184
I0902 16:06:26.500553 27875 layer_factory.hpp:77] Creating layer conv13/dw
I0902 16:06:26.500558 27875 net.cpp:100] Creating Layer conv13/dw
I0902 16:06:26.500562 27875 net.cpp:434] conv13/dw <- conv12
I0902 16:06:26.500567 27875 net.cpp:408] conv13/dw -> conv13/dw
I0902 16:06:26.500660 27875 net.cpp:150] Setting up conv13/dw
I0902 16:06:26.500666 27875 net.cpp:157] Top shape: 1 1024 10 10 (102400)
I0902 16:06:26.500669 27875 net.cpp:165] Memory required for data: 155574784
I0902 16:06:26.500674 27875 layer_factory.hpp:77] Creating layer conv13/dw/bn
I0902 16:06:26.500679 27875 net.cpp:100] Creating Layer conv13/dw/bn
I0902 16:06:26.500681 27875 net.cpp:434] conv13/dw/bn <- conv13/dw
I0902 16:06:26.500685 27875 net.cpp:395] conv13/dw/bn -> conv13/dw (in-place)
I0902 16:06:26.500697 27875 net.cpp:150] Setting up conv13/dw/bn
I0902 16:06:26.500701 27875 net.cpp:157] Top shape: 1 1024 10 10 (102400)
I0902 16:06:26.500705 27875 net.cpp:165] Memory required for data: 155984384
I0902 16:06:26.500710 27875 layer_factory.hpp:77] Creating layer conv13/dw/scale
I0902 16:06:26.500716 27875 net.cpp:100] Creating Layer conv13/dw/scale
I0902 16:06:26.500720 27875 net.cpp:434] conv13/dw/scale <- conv13/dw
I0902 16:06:26.500739 27875 net.cpp:395] conv13/dw/scale -> conv13/dw (in-place)
I0902 16:06:26.500748 27875 layer_factory.hpp:77] Creating layer conv13/dw/scale
I0902 16:06:26.500759 27875 net.cpp:150] Setting up conv13/dw/scale
I0902 16:06:26.500764 27875 net.cpp:157] Top shape: 1 1024 10 10 (102400)
I0902 16:06:26.500767 27875 net.cpp:165] Memory required for data: 156393984
I0902 16:06:26.500771 27875 layer_factory.hpp:77] Creating layer conv13/dw/relu
I0902 16:06:26.500775 27875 net.cpp:100] Creating Layer conv13/dw/relu
I0902 16:06:26.500778 27875 net.cpp:434] conv13/dw/relu <- conv13/dw
I0902 16:06:26.500782 27875 net.cpp:395] conv13/dw/relu -> conv13/dw (in-place)
I0902 16:06:26.500787 27875 net.cpp:150] Setting up conv13/dw/relu
I0902 16:06:26.500789 27875 net.cpp:157] Top shape: 1 1024 10 10 (102400)
I0902 16:06:26.500792 27875 net.cpp:165] Memory required for data: 156803584
I0902 16:06:26.500795 27875 layer_factory.hpp:77] Creating layer conv13
I0902 16:06:26.500800 27875 net.cpp:100] Creating Layer conv13
I0902 16:06:26.500803 27875 net.cpp:434] conv13 <- conv13/dw
I0902 16:06:26.500809 27875 net.cpp:408] conv13 -> conv13
I0902 16:06:26.511315 27875 net.cpp:150] Setting up conv13
I0902 16:06:26.511328 27875 net.cpp:157] Top shape: 1 1024 10 10 (102400)
I0902 16:06:26.511332 27875 net.cpp:165] Memory required for data: 157213184
I0902 16:06:26.511337 27875 layer_factory.hpp:77] Creating layer conv13/bn
I0902 16:06:26.511343 27875 net.cpp:100] Creating Layer conv13/bn
I0902 16:06:26.511348 27875 net.cpp:434] conv13/bn <- conv13
I0902 16:06:26.511353 27875 net.cpp:395] conv13/bn -> conv13 (in-place)
I0902 16:06:26.511365 27875 net.cpp:150] Setting up conv13/bn
I0902 16:06:26.511370 27875 net.cpp:157] Top shape: 1 1024 10 10 (102400)
I0902 16:06:26.511373 27875 net.cpp:165] Memory required for data: 157622784
I0902 16:06:26.511379 27875 layer_factory.hpp:77] Creating layer conv13/scale
I0902 16:06:26.511384 27875 net.cpp:100] Creating Layer conv13/scale
I0902 16:06:26.511386 27875 net.cpp:434] conv13/scale <- conv13
I0902 16:06:26.511391 27875 net.cpp:395] conv13/scale -> conv13 (in-place)
I0902 16:06:26.511401 27875 layer_factory.hpp:77] Creating layer conv13/scale
I0902 16:06:26.511413 27875 net.cpp:150] Setting up conv13/scale
I0902 16:06:26.511418 27875 net.cpp:157] Top shape: 1 1024 10 10 (102400)
I0902 16:06:26.511421 27875 net.cpp:165] Memory required for data: 158032384
I0902 16:06:26.511425 27875 layer_factory.hpp:77] Creating layer conv13/relu
I0902 16:06:26.511430 27875 net.cpp:100] Creating Layer conv13/relu
I0902 16:06:26.511433 27875 net.cpp:434] conv13/relu <- conv13
I0902 16:06:26.511436 27875 net.cpp:395] conv13/relu -> conv13 (in-place)
I0902 16:06:26.511441 27875 net.cpp:150] Setting up conv13/relu
I0902 16:06:26.511448 27875 net.cpp:157] Top shape: 1 1024 10 10 (102400)
I0902 16:06:26.511451 27875 net.cpp:165] Memory required for data: 158441984
I0902 16:06:26.511454 27875 layer_factory.hpp:77] Creating layer conv13_conv13/relu_0_split
I0902 16:06:26.511459 27875 net.cpp:100] Creating Layer conv13_conv13/relu_0_split
I0902 16:06:26.511462 27875 net.cpp:434] conv13_conv13/relu_0_split <- conv13
I0902 16:06:26.511467 27875 net.cpp:408] conv13_conv13/relu_0_split -> conv13_conv13/relu_0_split_0
I0902 16:06:26.511473 27875 net.cpp:408] conv13_conv13/relu_0_split -> conv13_conv13/relu_0_split_1
I0902 16:06:26.511478 27875 net.cpp:408] conv13_conv13/relu_0_split -> conv13_conv13/relu_0_split_2
I0902 16:06:26.511483 27875 net.cpp:408] conv13_conv13/relu_0_split -> conv13_conv13/relu_0_split_3
I0902 16:06:26.511490 27875 net.cpp:150] Setting up conv13_conv13/relu_0_split
I0902 16:06:26.511494 27875 net.cpp:157] Top shape: 1 1024 10 10 (102400)
I0902 16:06:26.511498 27875 net.cpp:157] Top shape: 1 1024 10 10 (102400)
I0902 16:06:26.511502 27875 net.cpp:157] Top shape: 1 1024 10 10 (102400)
I0902 16:06:26.511505 27875 net.cpp:157] Top shape: 1 1024 10 10 (102400)
I0902 16:06:26.511508 27875 net.cpp:165] Memory required for data: 160080384
I0902 16:06:26.511512 27875 layer_factory.hpp:77] Creating layer conv14_1
I0902 16:06:26.511518 27875 net.cpp:100] Creating Layer conv14_1
I0902 16:06:26.511521 27875 net.cpp:434] conv14_1 <- conv13_conv13/relu_0_split_0
I0902 16:06:26.511525 27875 net.cpp:408] conv14_1 -> conv14_1
I0902 16:06:26.514098 27875 net.cpp:150] Setting up conv14_1
I0902 16:06:26.514109 27875 net.cpp:157] Top shape: 1 256 10 10 (25600)
I0902 16:06:26.514113 27875 net.cpp:165] Memory required for data: 160182784
I0902 16:06:26.514118 27875 layer_factory.hpp:77] Creating layer conv14_1/bn
I0902 16:06:26.514124 27875 net.cpp:100] Creating Layer conv14_1/bn
I0902 16:06:26.514128 27875 net.cpp:434] conv14_1/bn <- conv14_1
I0902 16:06:26.514134 27875 net.cpp:395] conv14_1/bn -> conv14_1 (in-place)
I0902 16:06:26.514147 27875 net.cpp:150] Setting up conv14_1/bn
I0902 16:06:26.514150 27875 net.cpp:157] Top shape: 1 256 10 10 (25600)
I0902 16:06:26.514153 27875 net.cpp:165] Memory required for data: 160285184
I0902 16:06:26.514159 27875 layer_factory.hpp:77] Creating layer conv14_1/scale
I0902 16:06:26.514165 27875 net.cpp:100] Creating Layer conv14_1/scale
I0902 16:06:26.514168 27875 net.cpp:434] conv14_1/scale <- conv14_1
I0902 16:06:26.514173 27875 net.cpp:395] conv14_1/scale -> conv14_1 (in-place)
I0902 16:06:26.514181 27875 layer_factory.hpp:77] Creating layer conv14_1/scale
I0902 16:06:26.514194 27875 net.cpp:150] Setting up conv14_1/scale
I0902 16:06:26.514199 27875 net.cpp:157] Top shape: 1 256 10 10 (25600)
I0902 16:06:26.514201 27875 net.cpp:165] Memory required for data: 160387584
I0902 16:06:26.514205 27875 layer_factory.hpp:77] Creating layer conv14_1/relu
I0902 16:06:26.514210 27875 net.cpp:100] Creating Layer conv14_1/relu
I0902 16:06:26.514212 27875 net.cpp:434] conv14_1/relu <- conv14_1
I0902 16:06:26.514217 27875 net.cpp:395] conv14_1/relu -> conv14_1 (in-place)
I0902 16:06:26.514222 27875 net.cpp:150] Setting up conv14_1/relu
I0902 16:06:26.514226 27875 net.cpp:157] Top shape: 1 256 10 10 (25600)
I0902 16:06:26.514230 27875 net.cpp:165] Memory required for data: 160489984
I0902 16:06:26.514231 27875 layer_factory.hpp:77] Creating layer conv14_2
I0902 16:06:26.514237 27875 net.cpp:100] Creating Layer conv14_2
I0902 16:06:26.514241 27875 net.cpp:434] conv14_2 <- conv14_1
I0902 16:06:26.514246 27875 net.cpp:408] conv14_2 -> conv14_2
I0902 16:06:26.525171 27875 net.cpp:150] Setting up conv14_2
I0902 16:06:26.525183 27875 net.cpp:157] Top shape: 1 512 5 5 (12800)
I0902 16:06:26.525187 27875 net.cpp:165] Memory required for data: 160541184
I0902 16:06:26.525192 27875 layer_factory.hpp:77] Creating layer conv14_2/bn
I0902 16:06:26.525199 27875 net.cpp:100] Creating Layer conv14_2/bn
I0902 16:06:26.525203 27875 net.cpp:434] conv14_2/bn <- conv14_2
I0902 16:06:26.525207 27875 net.cpp:395] conv14_2/bn -> conv14_2 (in-place)
I0902 16:06:26.525223 27875 net.cpp:150] Setting up conv14_2/bn
I0902 16:06:26.525228 27875 net.cpp:157] Top shape: 1 512 5 5 (12800)
I0902 16:06:26.525230 27875 net.cpp:165] Memory required for data: 160592384
I0902 16:06:26.525236 27875 layer_factory.hpp:77] Creating layer conv14_2/scale
I0902 16:06:26.525241 27875 net.cpp:100] Creating Layer conv14_2/scale
I0902 16:06:26.525244 27875 net.cpp:434] conv14_2/scale <- conv14_2
I0902 16:06:26.525249 27875 net.cpp:395] conv14_2/scale -> conv14_2 (in-place)
I0902 16:06:26.525257 27875 layer_factory.hpp:77] Creating layer conv14_2/scale
I0902 16:06:26.525270 27875 net.cpp:150] Setting up conv14_2/scale
I0902 16:06:26.525274 27875 net.cpp:157] Top shape: 1 512 5 5 (12800)
I0902 16:06:26.525277 27875 net.cpp:165] Memory required for data: 160643584
I0902 16:06:26.525282 27875 layer_factory.hpp:77] Creating layer conv14_2/relu
I0902 16:06:26.525287 27875 net.cpp:100] Creating Layer conv14_2/relu
I0902 16:06:26.525290 27875 net.cpp:434] conv14_2/relu <- conv14_2
I0902 16:06:26.525295 27875 net.cpp:395] conv14_2/relu -> conv14_2 (in-place)
I0902 16:06:26.525300 27875 net.cpp:150] Setting up conv14_2/relu
I0902 16:06:26.525303 27875 net.cpp:157] Top shape: 1 512 5 5 (12800)
I0902 16:06:26.525306 27875 net.cpp:165] Memory required for data: 160694784
I0902 16:06:26.525310 27875 layer_factory.hpp:77] Creating layer conv14_2_conv14_2/relu_0_split
I0902 16:06:26.525313 27875 net.cpp:100] Creating Layer conv14_2_conv14_2/relu_0_split
I0902 16:06:26.525316 27875 net.cpp:434] conv14_2_conv14_2/relu_0_split <- conv14_2
I0902 16:06:26.525321 27875 net.cpp:408] conv14_2_conv14_2/relu_0_split -> conv14_2_conv14_2/relu_0_split_0
I0902 16:06:26.525326 27875 net.cpp:408] conv14_2_conv14_2/relu_0_split -> conv14_2_conv14_2/relu_0_split_1
I0902 16:06:26.525332 27875 net.cpp:408] conv14_2_conv14_2/relu_0_split -> conv14_2_conv14_2/relu_0_split_2
I0902 16:06:26.525337 27875 net.cpp:408] conv14_2_conv14_2/relu_0_split -> conv14_2_conv14_2/relu_0_split_3
I0902 16:06:26.525343 27875 net.cpp:150] Setting up conv14_2_conv14_2/relu_0_split
I0902 16:06:26.525347 27875 net.cpp:157] Top shape: 1 512 5 5 (12800)
I0902 16:06:26.525352 27875 net.cpp:157] Top shape: 1 512 5 5 (12800)
I0902 16:06:26.525354 27875 net.cpp:157] Top shape: 1 512 5 5 (12800)
I0902 16:06:26.525358 27875 net.cpp:157] Top shape: 1 512 5 5 (12800)
I0902 16:06:26.525360 27875 net.cpp:165] Memory required for data: 160899584
I0902 16:06:26.525363 27875 layer_factory.hpp:77] Creating layer conv15_1
I0902 16:06:26.525369 27875 net.cpp:100] Creating Layer conv15_1
I0902 16:06:26.525372 27875 net.cpp:434] conv15_1 <- conv14_2_conv14_2/relu_0_split_0
I0902 16:06:26.525378 27875 net.cpp:408] conv15_1 -> conv15_1
I0902 16:06:26.526298 27875 net.cpp:150] Setting up conv15_1
I0902 16:06:26.526309 27875 net.cpp:157] Top shape: 1 128 5 5 (3200)
I0902 16:06:26.526314 27875 net.cpp:165] Memory required for data: 160912384
I0902 16:06:26.526317 27875 layer_factory.hpp:77] Creating layer conv15_1/bn
I0902 16:06:26.526324 27875 net.cpp:100] Creating Layer conv15_1/bn
I0902 16:06:26.526327 27875 net.cpp:434] conv15_1/bn <- conv15_1
I0902 16:06:26.526331 27875 net.cpp:395] conv15_1/bn -> conv15_1 (in-place)
I0902 16:06:26.526342 27875 net.cpp:150] Setting up conv15_1/bn
I0902 16:06:26.526348 27875 net.cpp:157] Top shape: 1 128 5 5 (3200)
I0902 16:06:26.526351 27875 net.cpp:165] Memory required for data: 160925184
I0902 16:06:26.526356 27875 layer_factory.hpp:77] Creating layer conv15_1/scale
I0902 16:06:26.526361 27875 net.cpp:100] Creating Layer conv15_1/scale
I0902 16:06:26.526365 27875 net.cpp:434] conv15_1/scale <- conv15_1
I0902 16:06:26.526369 27875 net.cpp:395] conv15_1/scale -> conv15_1 (in-place)
I0902 16:06:26.526376 27875 layer_factory.hpp:77] Creating layer conv15_1/scale
I0902 16:06:26.526389 27875 net.cpp:150] Setting up conv15_1/scale
I0902 16:06:26.526394 27875 net.cpp:157] Top shape: 1 128 5 5 (3200)
I0902 16:06:26.526397 27875 net.cpp:165] Memory required for data: 160937984
I0902 16:06:26.526401 27875 layer_factory.hpp:77] Creating layer conv15_1/relu
I0902 16:06:26.526409 27875 net.cpp:100] Creating Layer conv15_1/relu
I0902 16:06:26.526413 27875 net.cpp:434] conv15_1/relu <- conv15_1
I0902 16:06:26.526417 27875 net.cpp:395] conv15_1/relu -> conv15_1 (in-place)
I0902 16:06:26.526422 27875 net.cpp:150] Setting up conv15_1/relu
I0902 16:06:26.526425 27875 net.cpp:157] Top shape: 1 128 5 5 (3200)
I0902 16:06:26.526428 27875 net.cpp:165] Memory required for data: 160950784
I0902 16:06:26.526432 27875 layer_factory.hpp:77] Creating layer conv15_2
I0902 16:06:26.526438 27875 net.cpp:100] Creating Layer conv15_2
I0902 16:06:26.526441 27875 net.cpp:434] conv15_2 <- conv15_1
I0902 16:06:26.526446 27875 net.cpp:408] conv15_2 -> conv15_2
I0902 16:06:26.529217 27875 net.cpp:150] Setting up conv15_2
I0902 16:06:26.529229 27875 net.cpp:157] Top shape: 1 256 3 3 (2304)
I0902 16:06:26.529233 27875 net.cpp:165] Memory required for data: 160960000
I0902 16:06:26.529237 27875 layer_factory.hpp:77] Creating layer conv15_2/bn
I0902 16:06:26.529243 27875 net.cpp:100] Creating Layer conv15_2/bn
I0902 16:06:26.529247 27875 net.cpp:434] conv15_2/bn <- conv15_2
I0902 16:06:26.529253 27875 net.cpp:395] conv15_2/bn -> conv15_2 (in-place)
I0902 16:06:26.529264 27875 net.cpp:150] Setting up conv15_2/bn
I0902 16:06:26.529269 27875 net.cpp:157] Top shape: 1 256 3 3 (2304)
I0902 16:06:26.529273 27875 net.cpp:165] Memory required for data: 160969216
I0902 16:06:26.529278 27875 layer_factory.hpp:77] Creating layer conv15_2/scale
I0902 16:06:26.529284 27875 net.cpp:100] Creating Layer conv15_2/scale
I0902 16:06:26.529286 27875 net.cpp:434] conv15_2/scale <- conv15_2
I0902 16:06:26.529291 27875 net.cpp:395] conv15_2/scale -> conv15_2 (in-place)
I0902 16:06:26.529299 27875 layer_factory.hpp:77] Creating layer conv15_2/scale
I0902 16:06:26.529311 27875 net.cpp:150] Setting up conv15_2/scale
I0902 16:06:26.529316 27875 net.cpp:157] Top shape: 1 256 3 3 (2304)
I0902 16:06:26.529320 27875 net.cpp:165] Memory required for data: 160978432
I0902 16:06:26.529323 27875 layer_factory.hpp:77] Creating layer conv15_2/relu
I0902 16:06:26.529337 27875 net.cpp:100] Creating Layer conv15_2/relu
I0902 16:06:26.529340 27875 net.cpp:434] conv15_2/relu <- conv15_2
I0902 16:06:26.529345 27875 net.cpp:395] conv15_2/relu -> conv15_2 (in-place)
I0902 16:06:26.529350 27875 net.cpp:150] Setting up conv15_2/relu
I0902 16:06:26.529353 27875 net.cpp:157] Top shape: 1 256 3 3 (2304)
I0902 16:06:26.529356 27875 net.cpp:165] Memory required for data: 160987648
I0902 16:06:26.529359 27875 layer_factory.hpp:77] Creating layer conv15_2_conv15_2/relu_0_split
I0902 16:06:26.529363 27875 net.cpp:100] Creating Layer conv15_2_conv15_2/relu_0_split
I0902 16:06:26.529366 27875 net.cpp:434] conv15_2_conv15_2/relu_0_split <- conv15_2
I0902 16:06:26.529371 27875 net.cpp:408] conv15_2_conv15_2/relu_0_split -> conv15_2_conv15_2/relu_0_split_0
I0902 16:06:26.529376 27875 net.cpp:408] conv15_2_conv15_2/relu_0_split -> conv15_2_conv15_2/relu_0_split_1
I0902 16:06:26.529381 27875 net.cpp:408] conv15_2_conv15_2/relu_0_split -> conv15_2_conv15_2/relu_0_split_2
I0902 16:06:26.529386 27875 net.cpp:408] conv15_2_conv15_2/relu_0_split -> conv15_2_conv15_2/relu_0_split_3
I0902 16:06:26.529392 27875 net.cpp:150] Setting up conv15_2_conv15_2/relu_0_split
I0902 16:06:26.529397 27875 net.cpp:157] Top shape: 1 256 3 3 (2304)
I0902 16:06:26.529400 27875 net.cpp:157] Top shape: 1 256 3 3 (2304)
I0902 16:06:26.529403 27875 net.cpp:157] Top shape: 1 256 3 3 (2304)
I0902 16:06:26.529407 27875 net.cpp:157] Top shape: 1 256 3 3 (2304)
I0902 16:06:26.529409 27875 net.cpp:165] Memory required for data: 161024512
I0902 16:06:26.529412 27875 layer_factory.hpp:77] Creating layer conv16_1
I0902 16:06:26.529418 27875 net.cpp:100] Creating Layer conv16_1
I0902 16:06:26.529422 27875 net.cpp:434] conv16_1 <- conv15_2_conv15_2/relu_0_split_0
I0902 16:06:26.529426 27875 net.cpp:408] conv16_1 -> conv16_1
I0902 16:06:26.529839 27875 net.cpp:150] Setting up conv16_1
I0902 16:06:26.529850 27875 net.cpp:157] Top shape: 1 128 3 3 (1152)
I0902 16:06:26.529853 27875 net.cpp:165] Memory required for data: 161029120
I0902 16:06:26.529861 27875 layer_factory.hpp:77] Creating layer conv16_1/bn
I0902 16:06:26.529867 27875 net.cpp:100] Creating Layer conv16_1/bn
I0902 16:06:26.529871 27875 net.cpp:434] conv16_1/bn <- conv16_1
I0902 16:06:26.529875 27875 net.cpp:395] conv16_1/bn -> conv16_1 (in-place)
I0902 16:06:26.529886 27875 net.cpp:150] Setting up conv16_1/bn
I0902 16:06:26.529891 27875 net.cpp:157] Top shape: 1 128 3 3 (1152)
I0902 16:06:26.529894 27875 net.cpp:165] Memory required for data: 161033728
I0902 16:06:26.529901 27875 layer_factory.hpp:77] Creating layer conv16_1/scale
I0902 16:06:26.529904 27875 net.cpp:100] Creating Layer conv16_1/scale
I0902 16:06:26.529907 27875 net.cpp:434] conv16_1/scale <- conv16_1
I0902 16:06:26.529912 27875 net.cpp:395] conv16_1/scale -> conv16_1 (in-place)
I0902 16:06:26.529920 27875 layer_factory.hpp:77] Creating layer conv16_1/scale
I0902 16:06:26.529930 27875 net.cpp:150] Setting up conv16_1/scale
I0902 16:06:26.529935 27875 net.cpp:157] Top shape: 1 128 3 3 (1152)
I0902 16:06:26.529938 27875 net.cpp:165] Memory required for data: 161038336
I0902 16:06:26.529942 27875 layer_factory.hpp:77] Creating layer conv16_1/relu
I0902 16:06:26.529948 27875 net.cpp:100] Creating Layer conv16_1/relu
I0902 16:06:26.529951 27875 net.cpp:434] conv16_1/relu <- conv16_1
I0902 16:06:26.529955 27875 net.cpp:395] conv16_1/relu -> conv16_1 (in-place)
I0902 16:06:26.529960 27875 net.cpp:150] Setting up conv16_1/relu
I0902 16:06:26.529964 27875 net.cpp:157] Top shape: 1 128 3 3 (1152)
I0902 16:06:26.529966 27875 net.cpp:165] Memory required for data: 161042944
I0902 16:06:26.529970 27875 layer_factory.hpp:77] Creating layer conv16_2
I0902 16:06:26.529978 27875 net.cpp:100] Creating Layer conv16_2
I0902 16:06:26.529980 27875 net.cpp:434] conv16_2 <- conv16_1
I0902 16:06:26.529984 27875 net.cpp:408] conv16_2 -> conv16_2
I0902 16:06:26.532586 27875 net.cpp:150] Setting up conv16_2
I0902 16:06:26.532593 27875 net.cpp:157] Top shape: 1 256 2 2 (1024)
I0902 16:06:26.532595 27875 net.cpp:165] Memory required for data: 161047040
I0902 16:06:26.532599 27875 layer_factory.hpp:77] Creating layer conv16_2/bn
I0902 16:06:26.532603 27875 net.cpp:100] Creating Layer conv16_2/bn
I0902 16:06:26.532606 27875 net.cpp:434] conv16_2/bn <- conv16_2
I0902 16:06:26.532611 27875 net.cpp:395] conv16_2/bn -> conv16_2 (in-place)
I0902 16:06:26.532621 27875 net.cpp:150] Setting up conv16_2/bn
I0902 16:06:26.532626 27875 net.cpp:157] Top shape: 1 256 2 2 (1024)
I0902 16:06:26.532629 27875 net.cpp:165] Memory required for data: 161051136
I0902 16:06:26.532634 27875 layer_factory.hpp:77] Creating layer conv16_2/scale
I0902 16:06:26.532639 27875 net.cpp:100] Creating Layer conv16_2/scale
I0902 16:06:26.532642 27875 net.cpp:434] conv16_2/scale <- conv16_2
I0902 16:06:26.532647 27875 net.cpp:395] conv16_2/scale -> conv16_2 (in-place)
I0902 16:06:26.532655 27875 layer_factory.hpp:77] Creating layer conv16_2/scale
I0902 16:06:26.532666 27875 net.cpp:150] Setting up conv16_2/scale
I0902 16:06:26.532671 27875 net.cpp:157] Top shape: 1 256 2 2 (1024)
I0902 16:06:26.532675 27875 net.cpp:165] Memory required for data: 161055232
I0902 16:06:26.532678 27875 layer_factory.hpp:77] Creating layer conv16_2/relu
I0902 16:06:26.532682 27875 net.cpp:100] Creating Layer conv16_2/relu
I0902 16:06:26.532685 27875 net.cpp:434] conv16_2/relu <- conv16_2
I0902 16:06:26.532689 27875 net.cpp:395] conv16_2/relu -> conv16_2 (in-place)
I0902 16:06:26.532693 27875 net.cpp:150] Setting up conv16_2/relu
I0902 16:06:26.532697 27875 net.cpp:157] Top shape: 1 256 2 2 (1024)
I0902 16:06:26.532701 27875 net.cpp:165] Memory required for data: 161059328
I0902 16:06:26.532702 27875 layer_factory.hpp:77] Creating layer conv16_2_conv16_2/relu_0_split
I0902 16:06:26.532708 27875 net.cpp:100] Creating Layer conv16_2_conv16_2/relu_0_split
I0902 16:06:26.532711 27875 net.cpp:434] conv16_2_conv16_2/relu_0_split <- conv16_2
I0902 16:06:26.532716 27875 net.cpp:408] conv16_2_conv16_2/relu_0_split -> conv16_2_conv16_2/relu_0_split_0
I0902 16:06:26.532722 27875 net.cpp:408] conv16_2_conv16_2/relu_0_split -> conv16_2_conv16_2/relu_0_split_1
I0902 16:06:26.532730 27875 net.cpp:408] conv16_2_conv16_2/relu_0_split -> conv16_2_conv16_2/relu_0_split_2
I0902 16:06:26.532735 27875 net.cpp:408] conv16_2_conv16_2/relu_0_split -> conv16_2_conv16_2/relu_0_split_3
I0902 16:06:26.532742 27875 net.cpp:150] Setting up conv16_2_conv16_2/relu_0_split
I0902 16:06:26.532745 27875 net.cpp:157] Top shape: 1 256 2 2 (1024)
I0902 16:06:26.532748 27875 net.cpp:157] Top shape: 1 256 2 2 (1024)
I0902 16:06:26.532752 27875 net.cpp:157] Top shape: 1 256 2 2 (1024)
I0902 16:06:26.532755 27875 net.cpp:157] Top shape: 1 256 2 2 (1024)
I0902 16:06:26.532758 27875 net.cpp:165] Memory required for data: 161075712
I0902 16:06:26.532761 27875 layer_factory.hpp:77] Creating layer conv17_1
I0902 16:06:26.532768 27875 net.cpp:100] Creating Layer conv17_1
I0902 16:06:26.532771 27875 net.cpp:434] conv17_1 <- conv16_2_conv16_2/relu_0_split_0
I0902 16:06:26.532776 27875 net.cpp:408] conv17_1 -> conv17_1
I0902 16:06:26.532927 27875 net.cpp:150] Setting up conv17_1
I0902 16:06:26.532932 27875 net.cpp:157] Top shape: 1 64 2 2 (256)
I0902 16:06:26.532935 27875 net.cpp:165] Memory required for data: 161076736
I0902 16:06:26.532939 27875 layer_factory.hpp:77] Creating layer conv17_1/bn
I0902 16:06:26.532944 27875 net.cpp:100] Creating Layer conv17_1/bn
I0902 16:06:26.532948 27875 net.cpp:434] conv17_1/bn <- conv17_1
I0902 16:06:26.532951 27875 net.cpp:395] conv17_1/bn -> conv17_1 (in-place)
I0902 16:06:26.532961 27875 net.cpp:150] Setting up conv17_1/bn
I0902 16:06:26.532965 27875 net.cpp:157] Top shape: 1 64 2 2 (256)
I0902 16:06:26.532968 27875 net.cpp:165] Memory required for data: 161077760
I0902 16:06:26.532974 27875 layer_factory.hpp:77] Creating layer conv17_1/scale
I0902 16:06:26.532980 27875 net.cpp:100] Creating Layer conv17_1/scale
I0902 16:06:26.532984 27875 net.cpp:434] conv17_1/scale <- conv17_1
I0902 16:06:26.532989 27875 net.cpp:395] conv17_1/scale -> conv17_1 (in-place)
I0902 16:06:26.532996 27875 layer_factory.hpp:77] Creating layer conv17_1/scale
I0902 16:06:26.533006 27875 net.cpp:150] Setting up conv17_1/scale
I0902 16:06:26.533010 27875 net.cpp:157] Top shape: 1 64 2 2 (256)
I0902 16:06:26.533013 27875 net.cpp:165] Memory required for data: 161078784
I0902 16:06:26.533017 27875 layer_factory.hpp:77] Creating layer conv17_1/relu
I0902 16:06:26.533021 27875 net.cpp:100] Creating Layer conv17_1/relu
I0902 16:06:26.533025 27875 net.cpp:434] conv17_1/relu <- conv17_1
I0902 16:06:26.533030 27875 net.cpp:395] conv17_1/relu -> conv17_1 (in-place)
I0902 16:06:26.533033 27875 net.cpp:150] Setting up conv17_1/relu
I0902 16:06:26.533037 27875 net.cpp:157] Top shape: 1 64 2 2 (256)
I0902 16:06:26.533041 27875 net.cpp:165] Memory required for data: 161079808
I0902 16:06:26.533042 27875 layer_factory.hpp:77] Creating layer conv17_2
I0902 16:06:26.533048 27875 net.cpp:100] Creating Layer conv17_2
I0902 16:06:26.533051 27875 net.cpp:434] conv17_2 <- conv17_1
I0902 16:06:26.533056 27875 net.cpp:408] conv17_2 -> conv17_2
I0902 16:06:26.533772 27875 net.cpp:150] Setting up conv17_2
I0902 16:06:26.533778 27875 net.cpp:157] Top shape: 1 128 1 1 (128)
I0902 16:06:26.533782 27875 net.cpp:165] Memory required for data: 161080320
I0902 16:06:26.533785 27875 layer_factory.hpp:77] Creating layer conv17_2/bn
I0902 16:06:26.533790 27875 net.cpp:100] Creating Layer conv17_2/bn
I0902 16:06:26.533794 27875 net.cpp:434] conv17_2/bn <- conv17_2
I0902 16:06:26.533798 27875 net.cpp:395] conv17_2/bn -> conv17_2 (in-place)
I0902 16:06:26.533807 27875 net.cpp:150] Setting up conv17_2/bn
I0902 16:06:26.533812 27875 net.cpp:157] Top shape: 1 128 1 1 (128)
I0902 16:06:26.533814 27875 net.cpp:165] Memory required for data: 161080832
I0902 16:06:26.533819 27875 layer_factory.hpp:77] Creating layer conv17_2/scale
I0902 16:06:26.533824 27875 net.cpp:100] Creating Layer conv17_2/scale
I0902 16:06:26.533828 27875 net.cpp:434] conv17_2/scale <- conv17_2
I0902 16:06:26.533833 27875 net.cpp:395] conv17_2/scale -> conv17_2 (in-place)
I0902 16:06:26.533839 27875 layer_factory.hpp:77] Creating layer conv17_2/scale
I0902 16:06:26.533854 27875 net.cpp:150] Setting up conv17_2/scale
I0902 16:06:26.533857 27875 net.cpp:157] Top shape: 1 128 1 1 (128)
I0902 16:06:26.533860 27875 net.cpp:165] Memory required for data: 161081344
I0902 16:06:26.533864 27875 layer_factory.hpp:77] Creating layer conv17_2/relu
I0902 16:06:26.533869 27875 net.cpp:100] Creating Layer conv17_2/relu
I0902 16:06:26.533871 27875 net.cpp:434] conv17_2/relu <- conv17_2
I0902 16:06:26.533876 27875 net.cpp:395] conv17_2/relu -> conv17_2 (in-place)
I0902 16:06:26.533880 27875 net.cpp:150] Setting up conv17_2/relu
I0902 16:06:26.533885 27875 net.cpp:157] Top shape: 1 128 1 1 (128)
I0902 16:06:26.533886 27875 net.cpp:165] Memory required for data: 161081856
I0902 16:06:26.533890 27875 layer_factory.hpp:77] Creating layer conv17_2_conv17_2/relu_0_split
I0902 16:06:26.533893 27875 net.cpp:100] Creating Layer conv17_2_conv17_2/relu_0_split
I0902 16:06:26.533896 27875 net.cpp:434] conv17_2_conv17_2/relu_0_split <- conv17_2
I0902 16:06:26.533901 27875 net.cpp:408] conv17_2_conv17_2/relu_0_split -> conv17_2_conv17_2/relu_0_split_0
I0902 16:06:26.533906 27875 net.cpp:408] conv17_2_conv17_2/relu_0_split -> conv17_2_conv17_2/relu_0_split_1
I0902 16:06:26.533918 27875 net.cpp:408] conv17_2_conv17_2/relu_0_split -> conv17_2_conv17_2/relu_0_split_2
I0902 16:06:26.533926 27875 net.cpp:150] Setting up conv17_2_conv17_2/relu_0_split
I0902 16:06:26.533929 27875 net.cpp:157] Top shape: 1 128 1 1 (128)
I0902 16:06:26.533933 27875 net.cpp:157] Top shape: 1 128 1 1 (128)
I0902 16:06:26.533936 27875 net.cpp:157] Top shape: 1 128 1 1 (128)
I0902 16:06:26.533939 27875 net.cpp:165] Memory required for data: 161083392
I0902 16:06:26.533941 27875 layer_factory.hpp:77] Creating layer conv11_mbox_loc
I0902 16:06:26.533949 27875 net.cpp:100] Creating Layer conv11_mbox_loc
I0902 16:06:26.533952 27875 net.cpp:434] conv11_mbox_loc <- conv11_conv11/relu_0_split_1
I0902 16:06:26.533957 27875 net.cpp:408] conv11_mbox_loc -> conv11_mbox_loc
I0902 16:06:26.534023 27875 net.cpp:150] Setting up conv11_mbox_loc
I0902 16:06:26.534027 27875 net.cpp:157] Top shape: 1 12 19 19 (4332)
I0902 16:06:26.534030 27875 net.cpp:165] Memory required for data: 161100720
I0902 16:06:26.534034 27875 layer_factory.hpp:77] Creating layer conv11_mbox_loc_perm
I0902 16:06:26.534040 27875 net.cpp:100] Creating Layer conv11_mbox_loc_perm
I0902 16:06:26.534044 27875 net.cpp:434] conv11_mbox_loc_perm <- conv11_mbox_loc
I0902 16:06:26.534050 27875 net.cpp:408] conv11_mbox_loc_perm -> conv11_mbox_loc_perm
I0902 16:06:26.534058 27875 net.cpp:150] Setting up conv11_mbox_loc_perm
I0902 16:06:26.534062 27875 net.cpp:157] Top shape: 1 19 19 12 (4332)
I0902 16:06:26.534065 27875 net.cpp:165] Memory required for data: 161118048
I0902 16:06:26.534068 27875 layer_factory.hpp:77] Creating layer conv11_mbox_loc_flat
I0902 16:06:26.534073 27875 net.cpp:100] Creating Layer conv11_mbox_loc_flat
I0902 16:06:26.534076 27875 net.cpp:434] conv11_mbox_loc_flat <- conv11_mbox_loc_perm
I0902 16:06:26.534081 27875 net.cpp:408] conv11_mbox_loc_flat -> conv11_mbox_loc_flat
I0902 16:06:26.534087 27875 net.cpp:150] Setting up conv11_mbox_loc_flat
I0902 16:06:26.534091 27875 net.cpp:157] Top shape: 1 4332 (4332)
I0902 16:06:26.534094 27875 net.cpp:165] Memory required for data: 161135376
I0902 16:06:26.534097 27875 layer_factory.hpp:77] Creating layer conv11_mbox_conf
I0902 16:06:26.534103 27875 net.cpp:100] Creating Layer conv11_mbox_conf
I0902 16:06:26.534106 27875 net.cpp:434] conv11_mbox_conf <- conv11_conv11/relu_0_split_2
I0902 16:06:26.534113 27875 net.cpp:408] conv11_mbox_conf -> conv11_mbox_conf
I0902 16:06:26.534412 27875 net.cpp:150] Setting up conv11_mbox_conf
I0902 16:06:26.534417 27875 net.cpp:157] Top shape: 1 63 19 19 (22743)
I0902 16:06:26.534420 27875 net.cpp:165] Memory required for data: 161226348
I0902 16:06:26.534425 27875 layer_factory.hpp:77] Creating layer conv11_mbox_conf_perm
I0902 16:06:26.534430 27875 net.cpp:100] Creating Layer conv11_mbox_conf_perm
I0902 16:06:26.534435 27875 net.cpp:434] conv11_mbox_conf_perm <- conv11_mbox_conf
I0902 16:06:26.534442 27875 net.cpp:408] conv11_mbox_conf_perm -> conv11_mbox_conf_perm
I0902 16:06:26.534451 27875 net.cpp:150] Setting up conv11_mbox_conf_perm
I0902 16:06:26.534456 27875 net.cpp:157] Top shape: 1 19 19 63 (22743)
I0902 16:06:26.534458 27875 net.cpp:165] Memory required for data: 161317320
I0902 16:06:26.534461 27875 layer_factory.hpp:77] Creating layer conv11_mbox_conf_flat
I0902 16:06:26.534466 27875 net.cpp:100] Creating Layer conv11_mbox_conf_flat
I0902 16:06:26.534469 27875 net.cpp:434] conv11_mbox_conf_flat <- conv11_mbox_conf_perm
I0902 16:06:26.534474 27875 net.cpp:408] conv11_mbox_conf_flat -> conv11_mbox_conf_flat
I0902 16:06:26.534479 27875 net.cpp:150] Setting up conv11_mbox_conf_flat
I0902 16:06:26.534483 27875 net.cpp:157] Top shape: 1 22743 (22743)
I0902 16:06:26.534487 27875 net.cpp:165] Memory required for data: 161408292
I0902 16:06:26.534489 27875 layer_factory.hpp:77] Creating layer conv11_mbox_priorbox
I0902 16:06:26.534495 27875 net.cpp:100] Creating Layer conv11_mbox_priorbox
I0902 16:06:26.534498 27875 net.cpp:434] conv11_mbox_priorbox <- conv11_conv11/relu_0_split_3
I0902 16:06:26.534502 27875 net.cpp:434] conv11_mbox_priorbox <- data_input_0_split_1
I0902 16:06:26.534507 27875 net.cpp:408] conv11_mbox_priorbox -> conv11_mbox_priorbox
I0902 16:06:26.534514 27875 net.cpp:150] Setting up conv11_mbox_priorbox
I0902 16:06:26.534518 27875 net.cpp:157] Top shape: 1 2 4332 (8664)
I0902 16:06:26.534521 27875 net.cpp:165] Memory required for data: 161442948
I0902 16:06:26.534524 27875 layer_factory.hpp:77] Creating layer conv13_mbox_loc
I0902 16:06:26.534530 27875 net.cpp:100] Creating Layer conv13_mbox_loc
I0902 16:06:26.534534 27875 net.cpp:434] conv13_mbox_loc <- conv13_conv13/relu_0_split_1
I0902 16:06:26.534540 27875 net.cpp:408] conv13_mbox_loc -> conv13_mbox_loc
I0902 16:06:26.534770 27875 net.cpp:150] Setting up conv13_mbox_loc
I0902 16:06:26.534775 27875 net.cpp:157] Top shape: 1 24 10 10 (2400)
I0902 16:06:26.534778 27875 net.cpp:165] Memory required for data: 161452548
I0902 16:06:26.534783 27875 layer_factory.hpp:77] Creating layer conv13_mbox_loc_perm
I0902 16:06:26.534787 27875 net.cpp:100] Creating Layer conv13_mbox_loc_perm
I0902 16:06:26.534790 27875 net.cpp:434] conv13_mbox_loc_perm <- conv13_mbox_loc
I0902 16:06:26.534796 27875 net.cpp:408] conv13_mbox_loc_perm -> conv13_mbox_loc_perm
I0902 16:06:26.534803 27875 net.cpp:150] Setting up conv13_mbox_loc_perm
I0902 16:06:26.534807 27875 net.cpp:157] Top shape: 1 10 10 24 (2400)
I0902 16:06:26.534811 27875 net.cpp:165] Memory required for data: 161462148
I0902 16:06:26.534813 27875 layer_factory.hpp:77] Creating layer conv13_mbox_loc_flat
I0902 16:06:26.534818 27875 net.cpp:100] Creating Layer conv13_mbox_loc_flat
I0902 16:06:26.534822 27875 net.cpp:434] conv13_mbox_loc_flat <- conv13_mbox_loc_perm
I0902 16:06:26.534826 27875 net.cpp:408] conv13_mbox_loc_flat -> conv13_mbox_loc_flat
I0902 16:06:26.534832 27875 net.cpp:150] Setting up conv13_mbox_loc_flat
I0902 16:06:26.534835 27875 net.cpp:157] Top shape: 1 2400 (2400)
I0902 16:06:26.534837 27875 net.cpp:165] Memory required for data: 161471748
I0902 16:06:26.534840 27875 layer_factory.hpp:77] Creating layer conv13_mbox_conf
I0902 16:06:26.534848 27875 net.cpp:100] Creating Layer conv13_mbox_conf
I0902 16:06:26.534852 27875 net.cpp:434] conv13_mbox_conf <- conv13_conv13/relu_0_split_2
I0902 16:06:26.534857 27875 net.cpp:408] conv13_mbox_conf -> conv13_mbox_conf
I0902 16:06:26.536159 27875 net.cpp:150] Setting up conv13_mbox_conf
I0902 16:06:26.536171 27875 net.cpp:157] Top shape: 1 126 10 10 (12600)
I0902 16:06:26.536175 27875 net.cpp:165] Memory required for data: 161522148
I0902 16:06:26.536180 27875 layer_factory.hpp:77] Creating layer conv13_mbox_conf_perm
I0902 16:06:26.536186 27875 net.cpp:100] Creating Layer conv13_mbox_conf_perm
I0902 16:06:26.536190 27875 net.cpp:434] conv13_mbox_conf_perm <- conv13_mbox_conf
I0902 16:06:26.536196 27875 net.cpp:408] conv13_mbox_conf_perm -> conv13_mbox_conf_perm
I0902 16:06:26.536206 27875 net.cpp:150] Setting up conv13_mbox_conf_perm
I0902 16:06:26.536213 27875 net.cpp:157] Top shape: 1 10 10 126 (12600)
I0902 16:06:26.536216 27875 net.cpp:165] Memory required for data: 161572548
I0902 16:06:26.536221 27875 layer_factory.hpp:77] Creating layer conv13_mbox_conf_flat
I0902 16:06:26.536224 27875 net.cpp:100] Creating Layer conv13_mbox_conf_flat
I0902 16:06:26.536227 27875 net.cpp:434] conv13_mbox_conf_flat <- conv13_mbox_conf_perm
I0902 16:06:26.536232 27875 net.cpp:408] conv13_mbox_conf_flat -> conv13_mbox_conf_flat
I0902 16:06:26.536239 27875 net.cpp:150] Setting up conv13_mbox_conf_flat
I0902 16:06:26.536242 27875 net.cpp:157] Top shape: 1 12600 (12600)
I0902 16:06:26.536245 27875 net.cpp:165] Memory required for data: 161622948
I0902 16:06:26.536248 27875 layer_factory.hpp:77] Creating layer conv13_mbox_priorbox
I0902 16:06:26.536254 27875 net.cpp:100] Creating Layer conv13_mbox_priorbox
I0902 16:06:26.536257 27875 net.cpp:434] conv13_mbox_priorbox <- conv13_conv13/relu_0_split_3
I0902 16:06:26.536262 27875 net.cpp:434] conv13_mbox_priorbox <- data_input_0_split_2
I0902 16:06:26.536267 27875 net.cpp:408] conv13_mbox_priorbox -> conv13_mbox_priorbox
I0902 16:06:26.536273 27875 net.cpp:150] Setting up conv13_mbox_priorbox
I0902 16:06:26.536278 27875 net.cpp:157] Top shape: 1 2 2400 (4800)
I0902 16:06:26.536280 27875 net.cpp:165] Memory required for data: 161642148
I0902 16:06:26.536283 27875 layer_factory.hpp:77] Creating layer conv14_2_mbox_loc
I0902 16:06:26.536290 27875 net.cpp:100] Creating Layer conv14_2_mbox_loc
I0902 16:06:26.536294 27875 net.cpp:434] conv14_2_mbox_loc <- conv14_2_conv14_2/relu_0_split_1
I0902 16:06:26.536300 27875 net.cpp:408] conv14_2_mbox_loc -> conv14_2_mbox_loc
I0902 16:06:26.536419 27875 net.cpp:150] Setting up conv14_2_mbox_loc
I0902 16:06:26.536424 27875 net.cpp:157] Top shape: 1 24 5 5 (600)
I0902 16:06:26.536427 27875 net.cpp:165] Memory required for data: 161644548
I0902 16:06:26.536432 27875 layer_factory.hpp:77] Creating layer conv14_2_mbox_loc_perm
I0902 16:06:26.536437 27875 net.cpp:100] Creating Layer conv14_2_mbox_loc_perm
I0902 16:06:26.536439 27875 net.cpp:434] conv14_2_mbox_loc_perm <- conv14_2_mbox_loc
I0902 16:06:26.536445 27875 net.cpp:408] conv14_2_mbox_loc_perm -> conv14_2_mbox_loc_perm
I0902 16:06:26.536453 27875 net.cpp:150] Setting up conv14_2_mbox_loc_perm
I0902 16:06:26.536456 27875 net.cpp:157] Top shape: 1 5 5 24 (600)
I0902 16:06:26.536459 27875 net.cpp:165] Memory required for data: 161646948
I0902 16:06:26.536461 27875 layer_factory.hpp:77] Creating layer conv14_2_mbox_loc_flat
I0902 16:06:26.536466 27875 net.cpp:100] Creating Layer conv14_2_mbox_loc_flat
I0902 16:06:26.536470 27875 net.cpp:434] conv14_2_mbox_loc_flat <- conv14_2_mbox_loc_perm
I0902 16:06:26.536474 27875 net.cpp:408] conv14_2_mbox_loc_flat -> conv14_2_mbox_loc_flat
I0902 16:06:26.536479 27875 net.cpp:150] Setting up conv14_2_mbox_loc_flat
I0902 16:06:26.536484 27875 net.cpp:157] Top shape: 1 600 (600)
I0902 16:06:26.536485 27875 net.cpp:165] Memory required for data: 161649348
I0902 16:06:26.536489 27875 layer_factory.hpp:77] Creating layer conv14_2_mbox_conf
I0902 16:06:26.536496 27875 net.cpp:100] Creating Layer conv14_2_mbox_conf
I0902 16:06:26.536499 27875 net.cpp:434] conv14_2_mbox_conf <- conv14_2_conv14_2/relu_0_split_2
I0902 16:06:26.536504 27875 net.cpp:408] conv14_2_mbox_conf -> conv14_2_mbox_conf
I0902 16:06:26.537096 27875 net.cpp:150] Setting up conv14_2_mbox_conf
I0902 16:06:26.537102 27875 net.cpp:157] Top shape: 1 126 5 5 (3150)
I0902 16:06:26.537104 27875 net.cpp:165] Memory required for data: 161661948
I0902 16:06:26.537109 27875 layer_factory.hpp:77] Creating layer conv14_2_mbox_conf_perm
I0902 16:06:26.537113 27875 net.cpp:100] Creating Layer conv14_2_mbox_conf_perm
I0902 16:06:26.537117 27875 net.cpp:434] conv14_2_mbox_conf_perm <- conv14_2_mbox_conf
I0902 16:06:26.537122 27875 net.cpp:408] conv14_2_mbox_conf_perm -> conv14_2_mbox_conf_perm
I0902 16:06:26.537129 27875 net.cpp:150] Setting up conv14_2_mbox_conf_perm
I0902 16:06:26.537134 27875 net.cpp:157] Top shape: 1 5 5 126 (3150)
I0902 16:06:26.537139 27875 net.cpp:165] Memory required for data: 161674548
I0902 16:06:26.537142 27875 layer_factory.hpp:77] Creating layer conv14_2_mbox_conf_flat
I0902 16:06:26.537147 27875 net.cpp:100] Creating Layer conv14_2_mbox_conf_flat
I0902 16:06:26.537150 27875 net.cpp:434] conv14_2_mbox_conf_flat <- conv14_2_mbox_conf_perm
I0902 16:06:26.537155 27875 net.cpp:408] conv14_2_mbox_conf_flat -> conv14_2_mbox_conf_flat
I0902 16:06:26.537160 27875 net.cpp:150] Setting up conv14_2_mbox_conf_flat
I0902 16:06:26.537163 27875 net.cpp:157] Top shape: 1 3150 (3150)
I0902 16:06:26.537166 27875 net.cpp:165] Memory required for data: 161687148
I0902 16:06:26.537169 27875 layer_factory.hpp:77] Creating layer conv14_2_mbox_priorbox
I0902 16:06:26.537173 27875 net.cpp:100] Creating Layer conv14_2_mbox_priorbox
I0902 16:06:26.537176 27875 net.cpp:434] conv14_2_mbox_priorbox <- conv14_2_conv14_2/relu_0_split_3
I0902 16:06:26.537180 27875 net.cpp:434] conv14_2_mbox_priorbox <- data_input_0_split_3
I0902 16:06:26.537186 27875 net.cpp:408] conv14_2_mbox_priorbox -> conv14_2_mbox_priorbox
I0902 16:06:26.537192 27875 net.cpp:150] Setting up conv14_2_mbox_priorbox
I0902 16:06:26.537195 27875 net.cpp:157] Top shape: 1 2 600 (1200)
I0902 16:06:26.537199 27875 net.cpp:165] Memory required for data: 161691948
I0902 16:06:26.537201 27875 layer_factory.hpp:77] Creating layer conv15_2_mbox_loc
I0902 16:06:26.537207 27875 net.cpp:100] Creating Layer conv15_2_mbox_loc
I0902 16:06:26.537210 27875 net.cpp:434] conv15_2_mbox_loc <- conv15_2_conv15_2/relu_0_split_1
I0902 16:06:26.537216 27875 net.cpp:408] conv15_2_mbox_loc -> conv15_2_mbox_loc
I0902 16:06:26.537281 27875 net.cpp:150] Setting up conv15_2_mbox_loc
I0902 16:06:26.537286 27875 net.cpp:157] Top shape: 1 24 3 3 (216)
I0902 16:06:26.537287 27875 net.cpp:165] Memory required for data: 161692812
I0902 16:06:26.537292 27875 layer_factory.hpp:77] Creating layer conv15_2_mbox_loc_perm
I0902 16:06:26.537297 27875 net.cpp:100] Creating Layer conv15_2_mbox_loc_perm
I0902 16:06:26.537299 27875 net.cpp:434] conv15_2_mbox_loc_perm <- conv15_2_mbox_loc
I0902 16:06:26.537303 27875 net.cpp:408] conv15_2_mbox_loc_perm -> conv15_2_mbox_loc_perm
I0902 16:06:26.537312 27875 net.cpp:150] Setting up conv15_2_mbox_loc_perm
I0902 16:06:26.537315 27875 net.cpp:157] Top shape: 1 3 3 24 (216)
I0902 16:06:26.537318 27875 net.cpp:165] Memory required for data: 161693676
I0902 16:06:26.537320 27875 layer_factory.hpp:77] Creating layer conv15_2_mbox_loc_flat
I0902 16:06:26.537324 27875 net.cpp:100] Creating Layer conv15_2_mbox_loc_flat
I0902 16:06:26.537328 27875 net.cpp:434] conv15_2_mbox_loc_flat <- conv15_2_mbox_loc_perm
I0902 16:06:26.537333 27875 net.cpp:408] conv15_2_mbox_loc_flat -> conv15_2_mbox_loc_flat
I0902 16:06:26.537338 27875 net.cpp:150] Setting up conv15_2_mbox_loc_flat
I0902 16:06:26.537341 27875 net.cpp:157] Top shape: 1 216 (216)
I0902 16:06:26.537343 27875 net.cpp:165] Memory required for data: 161694540
I0902 16:06:26.537346 27875 layer_factory.hpp:77] Creating layer conv15_2_mbox_conf
I0902 16:06:26.537353 27875 net.cpp:100] Creating Layer conv15_2_mbox_conf
I0902 16:06:26.537355 27875 net.cpp:434] conv15_2_mbox_conf <- conv15_2_conv15_2/relu_0_split_2
I0902 16:06:26.537361 27875 net.cpp:408] conv15_2_mbox_conf -> conv15_2_mbox_conf
I0902 16:06:26.537761 27875 net.cpp:150] Setting up conv15_2_mbox_conf
I0902 16:06:26.537771 27875 net.cpp:157] Top shape: 1 126 3 3 (1134)
I0902 16:06:26.537775 27875 net.cpp:165] Memory required for data: 161699076
I0902 16:06:26.537780 27875 layer_factory.hpp:77] Creating layer conv15_2_mbox_conf_perm
I0902 16:06:26.537786 27875 net.cpp:100] Creating Layer conv15_2_mbox_conf_perm
I0902 16:06:26.537789 27875 net.cpp:434] conv15_2_mbox_conf_perm <- conv15_2_mbox_conf
I0902 16:06:26.537796 27875 net.cpp:408] conv15_2_mbox_conf_perm -> conv15_2_mbox_conf_perm
I0902 16:06:26.537803 27875 net.cpp:150] Setting up conv15_2_mbox_conf_perm
I0902 16:06:26.537807 27875 net.cpp:157] Top shape: 1 3 3 126 (1134)
I0902 16:06:26.537811 27875 net.cpp:165] Memory required for data: 161703612
I0902 16:06:26.537817 27875 layer_factory.hpp:77] Creating layer conv15_2_mbox_conf_flat
I0902 16:06:26.537822 27875 net.cpp:100] Creating Layer conv15_2_mbox_conf_flat
I0902 16:06:26.537824 27875 net.cpp:434] conv15_2_mbox_conf_flat <- conv15_2_mbox_conf_perm
I0902 16:06:26.537828 27875 net.cpp:408] conv15_2_mbox_conf_flat -> conv15_2_mbox_conf_flat
I0902 16:06:26.537835 27875 net.cpp:150] Setting up conv15_2_mbox_conf_flat
I0902 16:06:26.537839 27875 net.cpp:157] Top shape: 1 1134 (1134)
I0902 16:06:26.537842 27875 net.cpp:165] Memory required for data: 161708148
I0902 16:06:26.537844 27875 layer_factory.hpp:77] Creating layer conv15_2_mbox_priorbox
I0902 16:06:26.537849 27875 net.cpp:100] Creating Layer conv15_2_mbox_priorbox
I0902 16:06:26.537853 27875 net.cpp:434] conv15_2_mbox_priorbox <- conv15_2_conv15_2/relu_0_split_3
I0902 16:06:26.537856 27875 net.cpp:434] conv15_2_mbox_priorbox <- data_input_0_split_4
I0902 16:06:26.537863 27875 net.cpp:408] conv15_2_mbox_priorbox -> conv15_2_mbox_priorbox
I0902 16:06:26.537869 27875 net.cpp:150] Setting up conv15_2_mbox_priorbox
I0902 16:06:26.537873 27875 net.cpp:157] Top shape: 1 2 216 (432)
I0902 16:06:26.537875 27875 net.cpp:165] Memory required for data: 161709876
I0902 16:06:26.537878 27875 layer_factory.hpp:77] Creating layer conv16_2_mbox_loc
I0902 16:06:26.537885 27875 net.cpp:100] Creating Layer conv16_2_mbox_loc
I0902 16:06:26.537889 27875 net.cpp:434] conv16_2_mbox_loc <- conv16_2_conv16_2/relu_0_split_1
I0902 16:06:26.537894 27875 net.cpp:408] conv16_2_mbox_loc -> conv16_2_mbox_loc
I0902 16:06:26.537955 27875 net.cpp:150] Setting up conv16_2_mbox_loc
I0902 16:06:26.537961 27875 net.cpp:157] Top shape: 1 24 2 2 (96)
I0902 16:06:26.537963 27875 net.cpp:165] Memory required for data: 161710260
I0902 16:06:26.537967 27875 layer_factory.hpp:77] Creating layer conv16_2_mbox_loc_perm
I0902 16:06:26.537972 27875 net.cpp:100] Creating Layer conv16_2_mbox_loc_perm
I0902 16:06:26.537976 27875 net.cpp:434] conv16_2_mbox_loc_perm <- conv16_2_mbox_loc
I0902 16:06:26.537981 27875 net.cpp:408] conv16_2_mbox_loc_perm -> conv16_2_mbox_loc_perm
I0902 16:06:26.537987 27875 net.cpp:150] Setting up conv16_2_mbox_loc_perm
I0902 16:06:26.537992 27875 net.cpp:157] Top shape: 1 2 2 24 (96)
I0902 16:06:26.537994 27875 net.cpp:165] Memory required for data: 161710644
I0902 16:06:26.537997 27875 layer_factory.hpp:77] Creating layer conv16_2_mbox_loc_flat
I0902 16:06:26.538002 27875 net.cpp:100] Creating Layer conv16_2_mbox_loc_flat
I0902 16:06:26.538004 27875 net.cpp:434] conv16_2_mbox_loc_flat <- conv16_2_mbox_loc_perm
I0902 16:06:26.538009 27875 net.cpp:408] conv16_2_mbox_loc_flat -> conv16_2_mbox_loc_flat
I0902 16:06:26.538014 27875 net.cpp:150] Setting up conv16_2_mbox_loc_flat
I0902 16:06:26.538018 27875 net.cpp:157] Top shape: 1 96 (96)
I0902 16:06:26.538020 27875 net.cpp:165] Memory required for data: 161711028
I0902 16:06:26.538023 27875 layer_factory.hpp:77] Creating layer conv16_2_mbox_conf
I0902 16:06:26.538029 27875 net.cpp:100] Creating Layer conv16_2_mbox_conf
I0902 16:06:26.538033 27875 net.cpp:434] conv16_2_mbox_conf <- conv16_2_conv16_2/relu_0_split_2
I0902 16:06:26.538038 27875 net.cpp:408] conv16_2_mbox_conf -> conv16_2_mbox_conf
I0902 16:06:26.538327 27875 net.cpp:150] Setting up conv16_2_mbox_conf
I0902 16:06:26.538333 27875 net.cpp:157] Top shape: 1 126 2 2 (504)
I0902 16:06:26.538336 27875 net.cpp:165] Memory required for data: 161713044
I0902 16:06:26.538341 27875 layer_factory.hpp:77] Creating layer conv16_2_mbox_conf_perm
I0902 16:06:26.538345 27875 net.cpp:100] Creating Layer conv16_2_mbox_conf_perm
I0902 16:06:26.538348 27875 net.cpp:434] conv16_2_mbox_conf_perm <- conv16_2_mbox_conf
I0902 16:06:26.538352 27875 net.cpp:408] conv16_2_mbox_conf_perm -> conv16_2_mbox_conf_perm
I0902 16:06:26.538360 27875 net.cpp:150] Setting up conv16_2_mbox_conf_perm
I0902 16:06:26.538364 27875 net.cpp:157] Top shape: 1 2 2 126 (504)
I0902 16:06:26.538367 27875 net.cpp:165] Memory required for data: 161715060
I0902 16:06:26.538369 27875 layer_factory.hpp:77] Creating layer conv16_2_mbox_conf_flat
I0902 16:06:26.538377 27875 net.cpp:100] Creating Layer conv16_2_mbox_conf_flat
I0902 16:06:26.538379 27875 net.cpp:434] conv16_2_mbox_conf_flat <- conv16_2_mbox_conf_perm
I0902 16:06:26.538385 27875 net.cpp:408] conv16_2_mbox_conf_flat -> conv16_2_mbox_conf_flat
I0902 16:06:26.538390 27875 net.cpp:150] Setting up conv16_2_mbox_conf_flat
I0902 16:06:26.538393 27875 net.cpp:157] Top shape: 1 504 (504)
I0902 16:06:26.538396 27875 net.cpp:165] Memory required for data: 161717076
I0902 16:06:26.538399 27875 layer_factory.hpp:77] Creating layer conv16_2_mbox_priorbox
I0902 16:06:26.538404 27875 net.cpp:100] Creating Layer conv16_2_mbox_priorbox
I0902 16:06:26.538408 27875 net.cpp:434] conv16_2_mbox_priorbox <- conv16_2_conv16_2/relu_0_split_3
I0902 16:06:26.538411 27875 net.cpp:434] conv16_2_mbox_priorbox <- data_input_0_split_5
I0902 16:06:26.538415 27875 net.cpp:408] conv16_2_mbox_priorbox -> conv16_2_mbox_priorbox
I0902 16:06:26.538422 27875 net.cpp:150] Setting up conv16_2_mbox_priorbox
I0902 16:06:26.538426 27875 net.cpp:157] Top shape: 1 2 96 (192)
I0902 16:06:26.538429 27875 net.cpp:165] Memory required for data: 161717844
I0902 16:06:26.538431 27875 layer_factory.hpp:77] Creating layer conv17_2_mbox_loc
I0902 16:06:26.538436 27875 net.cpp:100] Creating Layer conv17_2_mbox_loc
I0902 16:06:26.538440 27875 net.cpp:434] conv17_2_mbox_loc <- conv17_2_conv17_2/relu_0_split_0
I0902 16:06:26.538445 27875 net.cpp:408] conv17_2_mbox_loc -> conv17_2_mbox_loc
I0902 16:06:26.538487 27875 net.cpp:150] Setting up conv17_2_mbox_loc
I0902 16:06:26.538491 27875 net.cpp:157] Top shape: 1 24 1 1 (24)
I0902 16:06:26.538494 27875 net.cpp:165] Memory required for data: 161717940
I0902 16:06:26.538498 27875 layer_factory.hpp:77] Creating layer conv17_2_mbox_loc_perm
I0902 16:06:26.538502 27875 net.cpp:100] Creating Layer conv17_2_mbox_loc_perm
I0902 16:06:26.538506 27875 net.cpp:434] conv17_2_mbox_loc_perm <- conv17_2_mbox_loc
I0902 16:06:26.538509 27875 net.cpp:408] conv17_2_mbox_loc_perm -> conv17_2_mbox_loc_perm
I0902 16:06:26.538516 27875 net.cpp:150] Setting up conv17_2_mbox_loc_perm
I0902 16:06:26.538520 27875 net.cpp:157] Top shape: 1 1 1 24 (24)
I0902 16:06:26.538523 27875 net.cpp:165] Memory required for data: 161718036
I0902 16:06:26.538525 27875 layer_factory.hpp:77] Creating layer conv17_2_mbox_loc_flat
I0902 16:06:26.538530 27875 net.cpp:100] Creating Layer conv17_2_mbox_loc_flat
I0902 16:06:26.538534 27875 net.cpp:434] conv17_2_mbox_loc_flat <- conv17_2_mbox_loc_perm
I0902 16:06:26.538537 27875 net.cpp:408] conv17_2_mbox_loc_flat -> conv17_2_mbox_loc_flat
I0902 16:06:26.538542 27875 net.cpp:150] Setting up conv17_2_mbox_loc_flat
I0902 16:06:26.538547 27875 net.cpp:157] Top shape: 1 24 (24)
I0902 16:06:26.538549 27875 net.cpp:165] Memory required for data: 161718132
I0902 16:06:26.538552 27875 layer_factory.hpp:77] Creating layer conv17_2_mbox_conf
I0902 16:06:26.538558 27875 net.cpp:100] Creating Layer conv17_2_mbox_conf
I0902 16:06:26.538561 27875 net.cpp:434] conv17_2_mbox_conf <- conv17_2_conv17_2/relu_0_split_1
I0902 16:06:26.538565 27875 net.cpp:408] conv17_2_mbox_conf -> conv17_2_mbox_conf
I0902 16:06:26.538713 27875 net.cpp:150] Setting up conv17_2_mbox_conf
I0902 16:06:26.538718 27875 net.cpp:157] Top shape: 1 126 1 1 (126)
I0902 16:06:26.538722 27875 net.cpp:165] Memory required for data: 161718636
I0902 16:06:26.538725 27875 layer_factory.hpp:77] Creating layer conv17_2_mbox_conf_perm
I0902 16:06:26.538730 27875 net.cpp:100] Creating Layer conv17_2_mbox_conf_perm
I0902 16:06:26.538733 27875 net.cpp:434] conv17_2_mbox_conf_perm <- conv17_2_mbox_conf
I0902 16:06:26.538739 27875 net.cpp:408] conv17_2_mbox_conf_perm -> conv17_2_mbox_conf_perm
I0902 16:06:26.538746 27875 net.cpp:150] Setting up conv17_2_mbox_conf_perm
I0902 16:06:26.538749 27875 net.cpp:157] Top shape: 1 1 1 126 (126)
I0902 16:06:26.538753 27875 net.cpp:165] Memory required for data: 161719140
I0902 16:06:26.538755 27875 layer_factory.hpp:77] Creating layer conv17_2_mbox_conf_flat
I0902 16:06:26.538763 27875 net.cpp:100] Creating Layer conv17_2_mbox_conf_flat
I0902 16:06:26.538766 27875 net.cpp:434] conv17_2_mbox_conf_flat <- conv17_2_mbox_conf_perm
I0902 16:06:26.538770 27875 net.cpp:408] conv17_2_mbox_conf_flat -> conv17_2_mbox_conf_flat
I0902 16:06:26.538775 27875 net.cpp:150] Setting up conv17_2_mbox_conf_flat
I0902 16:06:26.538779 27875 net.cpp:157] Top shape: 1 126 (126)
I0902 16:06:26.538781 27875 net.cpp:165] Memory required for data: 161719644
I0902 16:06:26.538784 27875 layer_factory.hpp:77] Creating layer conv17_2_mbox_priorbox
I0902 16:06:26.538789 27875 net.cpp:100] Creating Layer conv17_2_mbox_priorbox
I0902 16:06:26.538792 27875 net.cpp:434] conv17_2_mbox_priorbox <- conv17_2_conv17_2/relu_0_split_2
I0902 16:06:26.538796 27875 net.cpp:434] conv17_2_mbox_priorbox <- data_input_0_split_6
I0902 16:06:26.538801 27875 net.cpp:408] conv17_2_mbox_priorbox -> conv17_2_mbox_priorbox
I0902 16:06:26.538807 27875 net.cpp:150] Setting up conv17_2_mbox_priorbox
I0902 16:06:26.538811 27875 net.cpp:157] Top shape: 1 2 24 (48)
I0902 16:06:26.538815 27875 net.cpp:165] Memory required for data: 161719836
I0902 16:06:26.538816 27875 layer_factory.hpp:77] Creating layer mbox_loc
I0902 16:06:26.538822 27875 net.cpp:100] Creating Layer mbox_loc
I0902 16:06:26.538825 27875 net.cpp:434] mbox_loc <- conv11_mbox_loc_flat
I0902 16:06:26.538830 27875 net.cpp:434] mbox_loc <- conv13_mbox_loc_flat
I0902 16:06:26.538832 27875 net.cpp:434] mbox_loc <- conv14_2_mbox_loc_flat
I0902 16:06:26.538836 27875 net.cpp:434] mbox_loc <- conv15_2_mbox_loc_flat
I0902 16:06:26.538841 27875 net.cpp:434] mbox_loc <- conv16_2_mbox_loc_flat
I0902 16:06:26.538843 27875 net.cpp:434] mbox_loc <- conv17_2_mbox_loc_flat
I0902 16:06:26.538848 27875 net.cpp:408] mbox_loc -> mbox_loc
I0902 16:06:26.538856 27875 net.cpp:150] Setting up mbox_loc
I0902 16:06:26.538859 27875 net.cpp:157] Top shape: 1 7668 (7668)
I0902 16:06:26.538861 27875 net.cpp:165] Memory required for data: 161750508
I0902 16:06:26.538864 27875 layer_factory.hpp:77] Creating layer mbox_conf
I0902 16:06:26.538869 27875 net.cpp:100] Creating Layer mbox_conf
I0902 16:06:26.538872 27875 net.cpp:434] mbox_conf <- conv11_mbox_conf_flat
I0902 16:06:26.538877 27875 net.cpp:434] mbox_conf <- conv13_mbox_conf_flat
I0902 16:06:26.538879 27875 net.cpp:434] mbox_conf <- conv14_2_mbox_conf_flat
I0902 16:06:26.538883 27875 net.cpp:434] mbox_conf <- conv15_2_mbox_conf_flat
I0902 16:06:26.538887 27875 net.cpp:434] mbox_conf <- conv16_2_mbox_conf_flat
I0902 16:06:26.538890 27875 net.cpp:434] mbox_conf <- conv17_2_mbox_conf_flat
I0902 16:06:26.538895 27875 net.cpp:408] mbox_conf -> mbox_conf
I0902 16:06:26.538902 27875 net.cpp:150] Setting up mbox_conf
I0902 16:06:26.538905 27875 net.cpp:157] Top shape: 1 40257 (40257)
I0902 16:06:26.538908 27875 net.cpp:165] Memory required for data: 161911536
I0902 16:06:26.538910 27875 layer_factory.hpp:77] Creating layer mbox_priorbox
I0902 16:06:26.538914 27875 net.cpp:100] Creating Layer mbox_priorbox
I0902 16:06:26.538918 27875 net.cpp:434] mbox_priorbox <- conv11_mbox_priorbox
I0902 16:06:26.538921 27875 net.cpp:434] mbox_priorbox <- conv13_mbox_priorbox
I0902 16:06:26.538924 27875 net.cpp:434] mbox_priorbox <- conv14_2_mbox_priorbox
I0902 16:06:26.538928 27875 net.cpp:434] mbox_priorbox <- conv15_2_mbox_priorbox
I0902 16:06:26.538931 27875 net.cpp:434] mbox_priorbox <- conv16_2_mbox_priorbox
I0902 16:06:26.538934 27875 net.cpp:434] mbox_priorbox <- conv17_2_mbox_priorbox
I0902 16:06:26.538939 27875 net.cpp:408] mbox_priorbox -> mbox_priorbox
I0902 16:06:26.538945 27875 net.cpp:150] Setting up mbox_priorbox
I0902 16:06:26.538949 27875 net.cpp:157] Top shape: 1 2 7668 (15336)
I0902 16:06:26.538952 27875 net.cpp:165] Memory required for data: 161972880
I0902 16:06:26.538954 27875 layer_factory.hpp:77] Creating layer mbox_conf_reshape
I0902 16:06:26.538960 27875 net.cpp:100] Creating Layer mbox_conf_reshape
I0902 16:06:26.538964 27875 net.cpp:434] mbox_conf_reshape <- mbox_conf
I0902 16:06:26.538967 27875 net.cpp:408] mbox_conf_reshape -> mbox_conf_reshape
I0902 16:06:26.538977 27875 net.cpp:150] Setting up mbox_conf_reshape
I0902 16:06:26.538982 27875 net.cpp:157] Top shape: 1 1917 21 (40257)
I0902 16:06:26.538985 27875 net.cpp:165] Memory required for data: 162133908
I0902 16:06:26.538988 27875 layer_factory.hpp:77] Creating layer mbox_conf_softmax
I0902 16:06:26.538992 27875 net.cpp:100] Creating Layer mbox_conf_softmax
I0902 16:06:26.538995 27875 net.cpp:434] mbox_conf_softmax <- mbox_conf_reshape
I0902 16:06:26.539000 27875 net.cpp:408] mbox_conf_softmax -> mbox_conf_softmax
I0902 16:06:26.539006 27875 net.cpp:150] Setting up mbox_conf_softmax
I0902 16:06:26.539011 27875 net.cpp:157] Top shape: 1 1917 21 (40257)
I0902 16:06:26.539013 27875 net.cpp:165] Memory required for data: 162294936
I0902 16:06:26.539016 27875 layer_factory.hpp:77] Creating layer mbox_conf_flatten
I0902 16:06:26.539019 27875 net.cpp:100] Creating Layer mbox_conf_flatten
I0902 16:06:26.539022 27875 net.cpp:434] mbox_conf_flatten <- mbox_conf_softmax
I0902 16:06:26.539027 27875 net.cpp:408] mbox_conf_flatten -> mbox_conf_flatten
I0902 16:06:26.539032 27875 net.cpp:150] Setting up mbox_conf_flatten
I0902 16:06:26.539036 27875 net.cpp:157] Top shape: 1 40257 (40257)
I0902 16:06:26.539039 27875 net.cpp:165] Memory required for data: 162455964
I0902 16:06:26.539042 27875 layer_factory.hpp:77] Creating layer detection_out
I0902 16:06:26.539053 27875 net.cpp:100] Creating Layer detection_out
I0902 16:06:26.539057 27875 net.cpp:434] detection_out <- mbox_loc
I0902 16:06:26.539060 27875 net.cpp:434] detection_out <- mbox_conf_flatten
I0902 16:06:26.539064 27875 net.cpp:434] detection_out <- mbox_priorbox
I0902 16:06:26.539069 27875 net.cpp:408] detection_out -> detection_out
I0902 16:06:26.539077 27875 net.cpp:150] Setting up detection_out
I0902 16:06:26.539081 27875 net.cpp:157] Top shape: 1 1 1 7 (7)
I0902 16:06:26.539083 27875 net.cpp:165] Memory required for data: 162455992
I0902 16:06:26.539086 27875 net.cpp:228] detection_out does not need backward computation.
I0902 16:06:26.539090 27875 net.cpp:228] mbox_conf_flatten does not need backward computation.
I0902 16:06:26.539093 27875 net.cpp:228] mbox_conf_softmax does not need backward computation.
I0902 16:06:26.539096 27875 net.cpp:228] mbox_conf_reshape does not need backward computation.
…
